checkpoint_actor.pth (torch, 550663 bytes, 10 tensors)

fc1.weight f4 [400, 33]
0.057126537 -0.13803028 0.08976887 -0.025414662 -0.017607374 -0.006780494 0.026905812 -0.07474403
-0.009684571 0.064107694 -0.021159774 -0.030462129 0.05752398 -0.11015623 0.05311754 -0.063278235
-0.054019757 0.019445298 0.008349695 -0.020916557 -0.036806025 -0.03835813 -0.020466221 -0.07516245
-0.012579472 0.045986336 0.020852141 -0.042647917 -0.081605904 -0.010142993 0.028029405 -0.008459497
0.22647773 -0.03909659 0.119267374 0.084294684 -0.04377721 0.013737745 -0.034374997 0.0856917
-0.050498173 -0.07025499 0.066958755 -0.025591956 -0.028764844 0.062075414 0.009416803 -0.20963703
-0.038964685 -0.020985497 -0.014048743 0.044369645 -0.03998503 -0.007502351 -0.045443714 -0.0045606783
0.02251459 -0.10304112 -0.022394063 -0.024331803 -0.02721419 0.01768037 -0.024720525 0.047866773
0.029194567 -0.026955832 -0.008840434 0.1689322 -0.06583733 0.04125936 -0.013855093 -0.031223051
-0.034021705 -0.029642763 0.0033185415 0.09346307 0.039891094 -0.0027152689 -0.031169543 0.14805385
-0.06150865 -0.03211004 0.019899275 0.01333161 -0.010564152 0.017655684 -0.025047699 0.0052965614
0.110117935 0.053327136 -0.011446857 0.018779786 -0.07782254 0.029687341 0.036710534 -0.03851547
0.009811213 -0.00076122954 -0.14335987 -0.07670632 -0.09374567 -0.011551755 0.031901103 -0.025036462
0.05919151 -0.00043103754 0.014810147 0.00095421687 0.11331765 0.030572945 0.035010204 -0.04387989
-0.030592501 0.06026773 -0.05722956 0.015892042 0.01620174 -0.014663528 0.030780768 0.04061321
-0.013166743 0.05639896 -0.055102788 0.08665368 0.024103401 -0.014496637 -0.045592748 0.0851009
-0.02374754 -0.0071942196 0.032007705 0.34983742 0.13934903 0.16632932 -0.20369868 0.008994639
-0.0072236676 -0.013118346 -0.06464846 -0.11888549 0.0012182057 0.05725149 0.04458784 -0.015172251
0.04692887 -0.040456314 0.008259424 -0.0650968 -0.00952075 0.023825878 0.015680037 0.004616378
0.049991943 0.025859857 0.1269272 -0.059913415 0.04162748 -0.0076665347 0.029466856 0.032602474
0.0021934847 -0.027659208 -0.01493262 0.04361814 -0.10595833 -0.03172559 0.09074481 -0.022607628
-0.019524885 0.007823324 -0.0089398725 -0.029799731 0.036692392 0.067820795 -0.028918695 0.0074296007
0.019116953 0.017236294 0.015799982 -0.052275833 -0.09088487 0.019496413 0.009483564 0.027205145
0.020259112 0.0132198 0.010901627 0.014586679 0.008768368 -0.0024313882 0.013201263 -0.04420511
0.029994866 0.08312063 -0.03545674 0.02282318 0.029723708 0.49061856 -0.030142987 -0.035745904
-0.1274024 -0.016730472 0.0505484 -0.027166532 -0.034702335 -0.050871287 -0.06769157 -0.04747398
0.01157258 -0.055735536 0.023935828 0.07102838 -0.016282853 0.12784514 -0.031476025 0.0036266707
0.012062911 -0.0058243405 0.016303437 0.044113945 0.012326588 -0.0458998 0.020413177 0.05835267
-0.07496756 -0.021291059 -0.0355653 -0.044609454 -0.03174543 0.035798427 -0.1556128 -0.111638956
-0.032273002 0.13388924 0.01371023 -0.045782104 -0.009884745 0.04375577 0.011376274 -0.036964044
0.015760455 -0.024145031 -0.016885044 0.0024920125 0.12473563 -0.06131395 -0.11092981 -0.0067037516
0.005455935 -0.023176158 0.003910547 -0.016694961 -0.052520085 -0.01648865 0.06067876 -0.017122705
00000000: 84fd 693d cf57 0dbe bed8 b73d 6932 d0bc
00000010: 573d 90bc e82e debb 9469 dc3c 6613 99bd
00000020: 09ac 1ebc e54a 833d 4357 adbc b78b f9bc
00000030: 449e 6b3d 9799 e1bd c791 593d 0598 81bd
00000040: d243 5dbd bf4b 9f3c 29cd 083c 3359 abbc
00000050: eac1 16bd 6a1d 1dbd c7a8 a7bc c5ee 99bd
00000060: 211a 4ebc 2b5c 3c3d 1cd2 aa3c 95af 2ebd
00000070: ff20 a7bd cc2e 26bc ec9d e53c b499 0abc
00000080: c7e9 673e bf23 20bd 7442 f43d b1a2 ac3d
00000090: bb4f 33bd 4714 613c cccc 0cbd 217f af3d
000000a0: 2cd7 4ebd d9e1 8fbd ac21 893d 39a6 d1bc
000000b0: 40a4 ebbc ca42 7e3d ef48 1a3c 17ab 56be
000000c0: 6f99 1fbd c7e9 abbc b32c 66bc f2bc 353d
000000d0: 58c7 23bd 48d6 f5bb 3023 3abd be71 95bb
000000e0: 8470 b83c 3907 d3bd c173 b7bc 7d53 c7bc
000000f0: 4bf0 debc 6cd6 903c b382 cabc f30f 443d
00000100: 7229 ef3c 7ad2 dcbc 78d7 10bc 90fc 2c3e
00000110: b9d5 86bd 93ff 283d 7900 63bc 7cc7 ffbc
00000120: 585a 0bbd 61d5 f2bc e37b 593b 9169 bf3d
00000130: d864 233d a7f2 31bb 4557 ffbc 6e9b 173e
00000140: 7ff0 7bbd d185 03bd ce03 a33c d36c 5a3c
00000150: 4415 2dbc a7a2 903c d530 cdbc c78e ad3b
00000160: 8385 e13d 8e6d 5a3d 998b 3bbc 11d8 993c
00000170: 6d61 9fbd de32 f33c c95d 163d 66c2 1dbd
00000180: 36bf 203c 408d 47ba eecc 12be 3418 9dbd
00000190: bbfd bfbd 9243 3dbc bbaa 023d 4419 cdbc
000001a0: cc72 723d e1fc e1b9 42a6 723c 6924 7a3a
000001b0: 1613 e83d 1d74 fa3c dc66 0f3d 66bb 33bd
000001c0: 209d fabc 4cdb 763d 8b69 6abd 0730 823c
000001d0: 83b9 843c 4b3f 70bc f327 fc3c 0a5a 263d
000001e0: 53b9 57bc 9902 673d 76b3 61bd 7c77 b13d
000001f0: 7f74 c53c 4d83 6dbc 76bf 3abd 6149 ae3d
00000200: 338a c2bc 7dbd ebbb 831a 033d e41d b33e
00000210: 83b1 0e3e 3c52 2a3e 6396 50be 405e 133c
00000220: 84b4 ecbb 55ee 56bc 6966 84bd 3c7a f3bd
00000230: 33ac 9f3a 8a80 6a3d bda1 363d 0895 78bc
00000240: 7d38 403d 85b5 25bd 8952 073c 7951 85bd
00000250: ebfc 1bbc 7d2e c33c 6c73 803c fc44 973b
00000260: 5ac4 4c3d 0dd8 d33c 34f9 013e c567 75bd
00000270: 9481 2a3d 8e37 fbbb 7a64 f13c 2c8a 053d
00000280: 91c0 0f3b 9095 e2bc f3a7 74bc efa8 323d
00000290: ae00 d9bd b1f2 01bd 6ad8 b93d a233 b9bc
000002a0: a7f2 9fbc 662d 003c 8b78 12bc 911e f4bc
000002b0: c34a 163d a1e5 8a3d e6e6 ecbc 0274 f33b
000002c0: 289b 9c3c 2133 8d3c f76e 813c 2f1f 56bd
000002d0: d921 babd f1b6 9f3c f360 1b3c 53dd de3c
000002e0: 70f6 a53c dc97 583c bd9c 323c f7fc 6e3c
000002f0: 33a9 0f3c ed57 1fbb 1c4a 583c 6b10 35bd
00000300: cbb7 f53c 263b aa3d 163b 11bd adf7 ba3c
00000310: 227f f33c 5b32 fb3e 6dee f6bc 4c6a 12bd
00000320: c675 02be 580e 89bc d70b 4f3d 598c debc
00000330: 0924 0ebd 695e 50bd e1a1 8abd 1374 42bd
00000340: eb9a 3d3c f24a 64bd 1215 c43c 5477 913d
00000350: 9e63 85bc d6e9 023e 01ed 00bd 70ad 6d3b
00000360: 84a3 453c 1cda bebb c98e 853c d3b0 343d
00000370: 75f5 493c 6e01 3cbd 8939 a73c 3603 6f3d
00000380: 9888 99bd 966a aebc ecac 11bd 67b8 36bd
00000390: 7f07 02bd 5fa1 123d f658 1fbe f7a2 e4bd
000003a0: b230 04bd 431a 093e dfa0 603c 0486 3bbd
000003b0: a0f3 21bc 4039 333d 8d63 3a3c 9c67 17bd
000003c0: 121c 813c cdcb c5bc 8152 8abc 0851 233b
000003d0: 6575 ff3d 5624 7bbd 2b2f e3bd 25ab dbbb
000003e0: b3c7 b23b eddb bdbc 0c24 803b dfc3 88bc
000003f0: 4d1f 57bd 3513 87bc 4b8a 783d ea44 8cbc

fc1.bias f4 [400]
0.13078511 -0.05488867 -0.16721508 0.00024964305 -0.14203599 0.09586254 0.043070514 0.123167634
-0.015708229 -0.12632607 0.13991927 -0.12562424 0.10905136 0.02413911 0.059557036 -0.13227703
-0.14361659 -0.08426222 -0.11536195 -0.15024197 -0.048158098 0.16633523 0.1313506 0.15554512
0.04577348 -0.13043885 0.1115622 0.17060071 -0.11051554 -0.0022207543 0.038478762 0.09817702
0.011745138 -0.17288025 -0.020512348 -0.11881169 0.095230326 0.122866146 0.015573534 -0.14607158
-0.056982394 -0.061991476 0.080595694 0.10635213 0.110329665 -0.056070678 0.06980157 -0.043632105
0.013558928 0.0023611928 -0.13948499 0.04272912 0.0048101074 -0.023002276 -0.17096311 -0.11973332
0.15193672 -0.16901962 -0.07558619 -0.07863204 0.10762382 -0.03573812 -0.1412299 0.13106258
0.15491143 0.027403306 -0.14082758 0.09620032 0.07696865 0.024687147 -0.017638134 0.03295072
-0.1338297 0.12909621 -0.005315631 -0.15978236 0.14191175 -0.06437111 0.014445172 0.07788602
0.03873994 0.13738787 -0.15958829 0.04753059 0.00022180674 -0.00785792 -0.103623904 -0.11364997
0.061653353 0.012600553 0.0053559244 0.10084473 0.025320092 0.012345598 0.112414785 -0.001061786
0.16171667 -0.1431069 0.07989428 0.044293184 0.01763704 -0.051731296 -0.033867784 0.052096225
0.013913656 -0.14052851 -0.15315083 -0.08705313 -0.17053351 -0.058505435 0.04559511 -0.101684935
0.028118588 0.16406159 -0.08346573 0.15894552 -0.008679707 -0.16975035 -0.045962334 0.031025354
0.1368925 -0.056882232 -0.12232556 0.15188988 0.030332597 -0.048731614 -0.07916832 0.07280921
0.14560133 -0.010641561 0.032961696 0.040252496 -0.024540916 0.08813271 0.16437683 0.08258959
0.1410158 0.051387828 -0.03293345 0.050499506 -0.09940564 -0.0559977 0.032883197 0.05604536
-0.13753268 0.04345796 0.09858982 -0.13832918 0.06507472 -0.048767243 0.11508903 0.16870408
0.08761379 -0.1367073 0.060556658 -0.08651866 0.12573633 0.059218917 0.07638876 -0.12968479
-0.1713569 -0.109434076 0.16112326 0.08194691 0.046587393 -0.139373 -0.051905748 0.0072849737
-0.025783034 0.15962683 -0.16828997 -0.031721268 0.11694702 0.11232703 -0.13260823 0.08022565
-0.014820927 -0.11145597 -0.015191789 -0.13124524 -0.052411605 0.17392384 -0.14633064 -0.14017683
0.10010828 0.10340494 -0.11180285 -0.045732137 -0.0009196238 -0.14162032 0.011654747 -0.054901063
-0.054414503 0.059923142 -0.08595472 0.015010497 0.15766954 0.13102779 0.11741497 0.14638664
-0.06487587 0.15730733 -0.16182058 0.1652464 0.17277402 0.089527786 0.008981061 0.045313265
-0.087008655 -0.10545311 -0.11255042 0.09954642 -0.13829851 0.015310402 0.059896376 -0.12951149
-0.12367701 0.0023929859 -0.14722195 0.022671165 -0.12197955 -0.113239296 -0.077648155 0.041041154
-0.05108831 -0.15686135 -0.076817505 -0.05264047 0.13792998 0.13105655 0.012644397 0.06832763
-0.17192432 -0.013354768 0.08755389 0.063474655 -0.0815811 0.11454667 0.063681826 -0.11001312
0.04375483 -0.13853398 0.10953185 0.11820474 -0.003619598 0.067742676 -0.09687004 -0.08558308
-0.03305692 -0.11998033 -0.029668033 -0.0010331575 -0.0786173 0.110022545 0.056772437 0.095819056
00000000: 88ec 053e f1d2 60bd 6e3a 2bbe 86e2 8239
00000010: e271 11be 9453 c43d b56a 303d 503f fc3d
00000020: 8bae 80bc 9f5b 01be ff46 0f3e a4a3 00be
00000030: 5256 df3d 62bf c53c 14f2 733d a173 07be
00000040: 3a10 13be ac91 acbd e342 ecbd 08d9 19be
00000050: 6d41 45bd c853 2a3e c680 063e 3847 1f3e
00000060: f97c 3b3d c391 05be b97a e43d f4b1 2e3e
00000070: f955 e2bd 138a 11bb e89b 1d3d 0911 c93d
00000080: ae6e 403c 8507 31be 8309 a8bc 8b53 f3bd
00000090: 1e08 c33d 3fa1 fb3d 2328 7f3c ca93 15be
000000a0: 5f66 69bd c6ea 7dbd 5b0f a53d 25cf d93d
000000b0: 85f4 e13d 5eaa 65bd 20f4 8e3d 94b7 32bd
000000c0: 4426 5e3c 3ebe 1a3b 27d5 0ebe bb04 2f3d
000000d0: 1b9e 9d3b 456f bcbc f410 2fbe be36 f5bd
000000e0: 4d95 1b3e 7b13 2dbe efcc 9abd d609 a1bd
000000f0: e169 dc3d 2362 12bd 929e 10be 4535 063e
00000100: 1aa1 1e3e e67c e03c 1b35 10be ac04 c53d
00000110: bda1 9d3d b33c ca3c d97d 90bc 56f7 063d
00000120: a70a 09be cc31 043e bf2e aebb fd9d 23be
00000130: 5051 113e 00d5 83bd 71ab 6c3c b582 9f3d
00000140: c5ad 1e3d 68af 0c3e 1d6b 23be 70af 423d
00000150: cb94 6839 81be 00bc c538 d4bd 51c1 e8bd
00000160: 3a88 7c3d 8d72 4e3c c080 af3b af87 ce3d
00000170: 156c cf3c 3145 4a3c b939 e63d a02b 8bba
00000180: 0e99 253e 9d8a 12be 9d9f a33d c56c 353d
00000190: 8e7b 903c 32e4 53bd f2b8 0abd da62 553d
000001a0: 1af6 633c b5e6 0fbe 92d3 1cbe e948 b2bd
000001b0: 56a0 2ebe 65a3 6fbd f0c1 3a3d 3140 d0bd
000001c0: f458 e63c c3ff 273e 15f0 aabd 9dc2 223e
000001d0: 5435 0ebc 09d3 2dbe 0043 3cbd e228 fe3c
000001e0: 8c2d 0c3e 58fd 68bd d385 fabd 0589 1b3e
000001f0: 117c f83c cd9a 47bd 0023 a2bd ff1c 953d
00000200: 8418 153e f159 2ebc d802 073d cddf 243d
00000210: 080a c9bc ec7e b43d 6652 283e bb24 a93d
00000220: 7266 103e 0b7c 523d 3ae5 06bd 92d8 4e3d
00000230: 2f95 cbbd d85d 65bd 88b0 063d d28f 653d
00000240: 5ed5 0cbe f900 323d 76e9 c93d 2aa6 0dbe
00000250: e545 853d 29c0 47bd ccb3 eb3d c3c0 2c3e
00000260: dc6e b33d 00fd 0bbe 420a 783d b230 b1bd
00000270: 06c1 003e 898f 723d b671 9c3d 17cc 04be
00000280: 2f78 2fbe f91e e0bd 7ffd 243e c8d3 a73d
00000290: 6cd2 3e3d ccb7 0ebe 1f9b 54bd cab6 ee3b
000002a0: f136 d3bc 3775 233e 3554 2cbe 29ee 01bd
000002b0: eb81 ef3d b70b e63d 74ca 07be 584d a43d
000002c0: 79d3 72bc 0743 e4bd fbe6 78bc 2765 06be
000002d0: 8dad 56bd 1719 323e b3d7 15be 848a 0fbe
000002e0: 9205 cd3d f8c5 d33d e5f8 e4bd 9f51 3bbd
000002f0: e912 71ba eb04 11be 8df3 3e3c f0df 60bd
00000300: bee1 5ebd f871 753d 0709 b0bd 96ee 753c
00000310: 2074 213e 262c 063e 4377 f03d 61e6 153e
00000320: a4dd 84bd 2c15 213e 4bb4 25be 5a36 293e
00000330: aceb 303e 585a b73d 4d25 133c 679a 393d
00000340: 9831 b2bd cdf7 d7bd d680 e6bd fede cb3d
00000350: 209e 0dbe 7bd8 7a3c e755 753d a99e 04be
00000360: 5f4a fdbd a4d3 1c3b 5ac1 16be e1b8 b93c
00000370: 6ad0 f9bd 01ea e7bd ff05 9fbd c51a 283d
00000380: fa41 51bd 43a0 20be 7f52 9dbd 899d 57bd
00000390: 843d 0d3e b033 063e 722a 4f3c 5bef 8b3d
000003a0: ee0c 30be f5cd 5abc 744f b33d 00ff 813d
000003b0: fe13 a7bd 7297 ea3d 9e6b 823d 8f4e e1bd
000003c0: 4438 333d dadb 0dbe 3c52 e03d 5415 f23d
000003d0: c736 6dbb acbc 8a3d cd63 c6bd 2f46 afbd
000003e0: b166 07bd 3fb8 f5bd 600a f3bc 036b 87ba
000003f0: 1b02 a1bd 8053 e13d 378a 683d c83c c43d

batch_norm.weight f4 [400]
1.1307356 1.0237837 1.0383142 1.1840308 1.0733128 1.375879 1.1669449 1.161702
1.1263006 1.1254947 1.3084565 1.025725 1.1623845 1.151862 1.070873 1.5482898
1.0307499 1.0711827 1.1958016 1.3074752 1.1188815 1.0894073 1.351158 0.9861833
1.1106232 1.363084 1.1319108 1.2013791 1.0198501 1.1663072 1.3683268 0.9229724
1.1999264 1.0058908 1.0388228 1.1291456 1.0171803 1.0204598 1.1818568 1.0644965
1.041505 1.0408874 1.0911535 1.0153196 0.9762736 1.0113117 1.0452489 1.2738957
0.9643376 1.257011 1.0357713 1.1302058 1.0407879 1.2192343 1.121538 0.979012
0.9797704 1.3511786 1.1100695 1.1194423 1.1051105 1.3104166 1.105054 1.088375
1.4288238 1.3260666 0.9552738 1.0254884 1.1946232 1.0978775 1.0376499 1.0321028
1.0910758 1.0601847 1.0022755 1.0976932 1.0810784 1.0612186 1.2774191 1.0716069
1.249082 1.0502133 1.2372872 1.0828515 1.0827429 1.0515642 1.0677438 1.1321889
0.9320999 1.0911152 1.1978854 1.1089543 1.1438546 1.3536748 1.245193 1.1933267
1.0660561 1.1153522 1.3056792 1.0050337 1.4055953 1.378478 1.0433227 1.0571465
1.297417 1.1253163 1.236248 1.0092766 1.0702463 1.1885434 1.1627194 1.0945593
1.1127822 1.0667777 1.1702003 1.078485 1.2448908 1.1914722 1.135945 1.2063675
1.0599738 1.0207444 1.0415516 1.2846752 0.943687 1.090539 1.0705141 1.0166267
1.4035603 0.9371083 0.92898333 1.1824062 1.0928668 1.1893312 1.205847 1.3450265
1.1042495 1.3944116 1.0021597 1.0108548 1.0714202 1.0735289 1.1607744 1.462573
0.994486 1.1066812 1.1891391 1.0763747 1.2807925 1.0348718 1.2865727 1.1211594
1.1041057 1.1978334 1.2306104 1.1856018 1.0751486 1.4045244 1.0610204 1.2609102
1.1852359 1.0650532 1.087559 1.0442085 1.2344973 1.1750028 1.1392525 1.3658533
1.0353544 1.0716909 1.0101764 1.1407404 1.0186751 1.0570678 1.0453156 1.1597441
1.1729549 1.217591 1.1278 1.2541015 0.98238236 1.0549864 1.0069036 1.2911607
1.0371562 1.1714032 0.9844176 1.1921848 1.0883671 1.0195504 1.2210503 1.0494275
1.1409677 1.2071853 1.1431775 1.0237794 1.2177404 1.4076935 1.1660553 1.1009088
1.1173058 1.1052934 1.1180235 0.97516084 1.2727565 1.1613396 1.0996503 1.2632924
1.1582235 1.1766481 1.0864892 1.054025 1.1010948 1.149912 1.2142494 1.3375849
1.3309904 1.1263244 0.929349 1.1288896 1.0336537 1.0196326 1.20089 1.2349241
1.379456 1.1805283 1.1153647 1.1359679 0.92911214 1.1076959 1.008291 1.2735703
1.1197312 0.9973858 1.363824 1.0982277 1.1261252 1.1681743 1.1191181 1.0944257
1.0378534 1.0673426 1.1017857 1.0660776 1.555815 1.0644001 1.0853077 0.89850914
0.9939352 1.2656219 1.5688757 0.95093995 1.3242204 1.160739 1.2823331 1.172632
00000000: f2bb 903f 580b 833f 7be7 843f 528e 973f
00000010: 5062 893f ce1c b03f 735e 953f a7b2 943f
00000020: 9e2a 903f 3610 903f 817b a73f f54a 833f
00000030: 04c9 943f 3770 933f 5e12 893f 5c2e c63f
00000040: 9def 833f 841c 893f 0710 993f 595b a73f
00000050: 8237 8f3f b371 8b3f bff2 ac3f 8276 7c3f
00000060: e728 8e3f 8979 ae3f 74e2 903f cac6 993f
00000070: 738a 823f 8e49 953f 5525 af3f eb47 6c3f
00000080: 3097 993f 08c1 803f 25f8 843f d887 903f
00000090: f732 823f 6d9e 823f 1547 973f 6c41 883f
000000a0: 0950 853f cc3b 853f ebaa 8b3f fef5 813f
000000b0: 11ed 793f a972 813f b7ca 853f 040f a33f
000000c0: d4de 763f bde5 a03f 2794 843f 95aa 903f
000000d0: 8a38 853f df0f 9c3f 8f8e 8f3f 88a0 7a3f
000000e0: 3cd2 7a3f 6cf3 ac3f c216 8e3f e349 8f3f
000000f0: 4374 8d3f bbbb a73f 6972 8d3f df4f 8b3f
00000100: b3e3 b63f 8dbc a93f d38c 743f 3443 833f
00000110: 6ae9 983f 4087 8c3f b6d1 843f f21b 843f
00000120: 5fa8 8b3f 22b4 873f 904a 803f 3681 8c3f
00000130: c760 8a3f 03d6 873f 7882 a33f 6a2a 893f
00000140: ebe1 9f3f 646d 863f 6d5f 9e3f e19a 8a3f
00000150: 5297 8a3f a899 863f d4ab 883f 91eb 903f
00000160: 199e 6e3f aaa9 8b3f 4f54 993f 37f2 8d3f
00000170: d469 923f 3745 ad3f 7c62 9f3f eebe 983f
00000180: 8774 883f dcc3 8e3f 7f20 a73f f2a4 803f
00000190: 8cea b33f f871 b03f 998b 853f 9450 873f
000001a0: c311 a63f 5d0a 903f 603d 9e3f fa2f 813f
000001b0: d5fd 883f 3122 983f fdd3 943f 851a 8c3f
000001c0: a66f 8e3f 2c8c 883f 20c9 953f cc0b 8a3f
000001d0: 9558 9f3f 2982 983f a566 913f 406a 9a3f
000001e0: 39ad 873f c1a7 823f 9051 853f 3d70 a43f
000001f0: 7995 713f c896 8b3f 9b06 893f d320 823f
00000200: dda7 b33f 54e6 6f3f dad1 6d3f 1659 973f
00000210: 0fe3 8b3f 013c 983f 3259 9a3f d429 ac3f
00000220: 0c58 8d3f 147c b23f c546 803f b163 813f
00000230: 4c24 893f 6569 893f 4194 943f 9835 bb3f
00000240: a296 7e3f bba7 8d3f b635 983f a5c6 893f
00000250: 02f1 a33f ae76 843f 6aae a43f 2782 8f3f
00000260: 5653 8d3f 9b52 993f a484 9d3f cdc1 973f
00000270: 789e 893f 75c7 b33f 84cf 873f 8165 a13f
00000280: cfb5 973f aa53 883f 2235 8b3f a0a8 853f
00000290: 0204 9e3f 7e66 963f 07d3 913f 48d4 ae3f
000002a0: 7e86 843f 2b2d 893f 764d 813f c803 923f
000002b0: f263 823f ff4d 873f e7cc 853f 7f72 943f
000002c0: 6323 963f 06da 9b3f c05b 903f 6686 a03f
000002d0: 697d 7b3f cb09 873f 38e2 803f c144 a53f
000002e0: 89c1 843f 8af0 953f cb02 7c3f 8399 983f
000002f0: 9d4f 8b3f a180 823f 604b 9c3f a453 863f
00000300: 3b0b 923f 0c85 9a3f a453 923f 340b 833f
00000310: ebde 9b3f 4d2f b43f 4d41 953f 94ea 8c3f
00000320: e003 8f3f 417a 8d3f 651b 8f3f 24a4 793f
00000330: afe9 a23f c7a6 943f 57c1 8c3f 91b3 a13f
00000340: ab40 943f 689c 963f 1412 8b3f 4bea 863f
00000350: adf0 8c3f 5130 933f 866c 9b3f fb35 ab3f
00000360: e55d aa3f 662b 903f d1e9 6d3f 747f 903f
00000370: c44e 843f 5283 823f c3b6 993f fe11 9e3f
00000380: 0492 b03f 8d1b 973f 45c4 8e3f 6567 913f
00000390: 4bda 6d3f fbc8 8d3f ae0f 813f 5a04 a33f
000003a0: 5a53 8f3f ad54 7f3f c991 ae3f ba92 8c3f
000003b0: df24 903f bc86 953f 433f 8f3f 2416 8c3f
000003c0: 61d8 843f af9e 883f 5007 8d3f 3b75 883f
000003d0: f224 c73f 433e 883f 5deb 8a3f b204 663f
000003e0: 8a72 7e3f e6ff a13f ebd0 c83f cd70 733f
000003f0: 0e80 a93f 1893 943f 7e23 a43f ce18 963f

batch_norm.bias f4 [400]
-0.19404401 -0.19445907 0.11815547 -0.04314575 -0.0725414 0.023841072 0.03415373 -0.34467846
-0.51380134 -0.041720025 0.18644989 -0.26409808 0.26085043 0.08242958 0.18355243 -0.08657611
-0.23928519 0.11703372 -0.33824113 0.14941594 0.16792081 -0.03235921 -0.112512104 -0.34645241
0.034335826 -0.089906536 -0.20744076 -0.16507797 -0.18293399 0.103491336 -0.2631264 0.08160312
-0.22640097 -0.4224664 0.08694954 0.006958274 -0.053929973 -0.043699216 -0.059655502 -0.13734041
-0.053723596 -0.38711277 0.14568743 -0.16761462 -0.15879038 -0.13418245 0.43596503 -0.066870876
0.11347347 -0.037319556 -0.26865488 0.0073765917 -0.029248433 0.0366139 -0.13234402 -0.55278546
0.12676816 -0.032906357 -0.15898186 -0.08153932 -0.18747018 0.17133169 0.013972564 -0.06398711
0.013633551 -0.07769081 0.052010935 0.03998052 -0.22202358 -0.26312324 0.17209764 -0.038472306
0.35223693 -0.31531313 -0.34854445 0.011539292 0.010084712 -0.057582572 0.16740409 0.098581724
-0.085803434 0.12931713 -0.23727413 -0.073886864 -0.09445144 0.09825934 0.22278564 0.0870147
-0.05114143 -0.35062772 -0.10446777 -0.011697789 0.11765536 -0.39196733 -0.40011317 -0.27352527
-0.34839433 -0.594383 -0.16278131 0.0012043349 -0.09056903 0.20154777 -0.0690911 0.23810276
0.009107294 -0.31930935 0.20180985 -0.2565379 -0.30573502 0.004511221 0.12761138 -0.07316615
-0.34180015 0.08562535 0.08622517 -0.07688096 0.17233288 -0.11546373 -0.17104422 0.00928342
-0.12339084 0.26505387 0.27450135 0.12305213 -0.14449854 0.30823925 0.22401704 -0.057350513
-0.20577718 0.12007532 0.08110214 0.08743199 -0.48058122 -0.33815593 -0.26207793 -0.1710357
-0.24927326 0.27736643 0.11660138 0.13353202 -0.18235874 0.05976974 -0.31884393 0.09834462
-0.10937273 -0.22470583 0.007788585 -0.37402543 -0.18517056 0.016227445 -0.11231529 0.1733779
0.05363264 0.2636327 -0.24690266 0.03263294 -0.14867395 -0.24945636 0.2562384 -0.38248575
0.11141564 0.2679527 -0.190262 0.28490198 -0.069883145 -0.07888449 -0.29388502 0.0361551
-0.14099973 0.064449936 -0.2086571 0.26522294 0.14270492 0.020151269 -0.283553 0.03682448
-0.37565967 -0.09598056 0.025998875 0.07592061 -0.042555217 -0.042288866 0.2803105 -0.073699184
-0.36727378 -0.0123028485 0.17082523 0.06456409 -0.11922207 0.023492308 -0.044270173 0.05940369
-0.19914976 0.58201885 -0.25381225 0.2273092 -0.17582756 -0.031491186 -0.15745093 0.034440745
-0.12412062 -0.31007943 -0.1663011 -0.35896203 -0.21066271 -0.1309377 -0.32310206 -0.17339781
-0.2050794 -0.22851774 0.27681136 -0.05618226 -0.23657657 0.0012491742 -0.11704238 0.04931952
-0.18545766 -0.24798994 0.08709972 0.17790458 -0.23375553 0.011667928 -0.13847764 -0.16549723
-0.28704435 -0.1007271 -0.15804571 0.003945222 0.2772485 -0.19371948 0.022941906 0.2894363
-0.39849943 0.29720634 0.08999728 -0.11472754 0.19284788 -0.16255292 -0.21462728 -0.31244576
0.000766825 0.22211376 0.07624438 -0.2041744 0.24842359 -0.038843606 0.16384646 0.059316266
-0.07609833 -0.22870731 0.27676263 -0.08611676 -0.0747092 0.31420538 0.07722604 -0.14215045
00000000: 79b3 46be 4720 47be 7ffb f13d 99b9 30bd
00000010: 9690 94bd 5a4e c33c c8e4 0b3d b279 b0be
00000020: 7c88 03bf 9ee2 2abd b8ec 3e3e dd37 87be
00000030: 308e 853e d7d0 a83d 2bf5 3b3e d14e b1bd
00000040: 2d07 75be 60af ef3d f12d adbe 7e00 193e
00000050: 6ff3 2b3e 178b 04bd bf6c e6bd 3662 b1be
00000060: b9a3 0c3d eb20 b8bd 5a6b 54be 330a 29be
00000070: 0c53 3bbe 44f3 d33d 81b8 86be 891f a73d
00000080: a8d5 67be 844d d8be 9a12 b23d 3c02 e43b
00000090: ade5 5cbd f3fd 32bd 5459 74bd f7a2 0cbe
000000a0: 460d 5cbd a533 c6be 162f 153e 2ba3 2bbe
000000b0: f299 22be 2067 09be cf36 df3e 99f3 88bd
000000c0: c764 e83d 64dc 18bd 228d 89be 56b7 f13b
000000d0: 699a efbc 75f8 153d 3185 07be 5983 0dbf
000000e0: 83cf 013e d1c8 06bd 24cc 22be 16fe a6bd
000000f0: 2ff8 3fbe 9371 2f3e 2eed 643c ad0b 83bd
00000100: 425f 5f3c 5c1c 9fbd 6b09 553d 9dc2 233d
00000110: 265a 63be 17b8 86be 5d3a 303e 2395 1dbd
00000120: 6658 b43e b970 a1be 6b74 b2be 4c0f 3d3c
00000130: 593a 253c b4db 6bbd fa6b 2b3e 37e5 c93d
00000140: b6b9 afbd b66b 043e fdf7 72be ff51 97bd
00000150: c26f c1bd 313c c93d eb21 643e c334 b23d
00000160: ad79 51bd 7a85 b3be 33f3 d5bd 15a8 3fbc
00000170: 4bf5 f03d f1af c8be a2db ccbe 810b 8cbe
00000180: be60 b2be 7c29 18bf 25b0 26be c6da 9d3a
00000190: 417c b9bd 8a62 4e3e a27f 8dbd 36d1 733e
000001a0: c236 153c 847c a3be 3ea7 4e3e f058 83be
000001b0: 4d89 9cbe ddd2 933b 8fac 023e 22d8 95bd
000001c0: 6e00 afbe 585c af3d d296 b03d c473 9dbd
000001d0: 0878 303e 4078 ecbd 3726 2fbe 7c19 183c
000001e0: 56b4 fcbd 24b5 873e 718b 8c3e c102 fc3d
000001f0: 6df7 13be 89d1 9d3e b964 653e 5fe8 6abd
00000200: 41b7 52be 0dea f53d e118 a63d 8b0f b33d
00000210: be0e f6be c622 adbe 142f 86be fc23 2fbe
00000220: 7d41 7fbe f902 8e3e b4cc ee3d 9ebc 083e
00000230: 40bc 3abe 1dd1 743d 833f a3be e768 c93d
00000240: cffe dfbd 4919 66be 6337 ff3b 4380 bfbe
00000250: 5a9d 3dbe 6bef 843c 8f05 e6bd fa89 313e
00000260: e6ad 5b3d defa 863e 0dd4 7cbe 1eaa 053d
00000270: fc3d 18be 7d71 7fbe ae31 833e 2cd5 c3be
00000280: e22d e43d 1931 893e 0bd4 42be acde 913e
00000290: e51e 8fbd 318e a1bd 1978 96be 5f17 143d
000002a0: 3c62 10be 54fe 833d 35aa 55be 4dcb 873e
000002b0: 3d21 123e 4614 a53c dc2d 91be 44d5 163d
000002c0: 7756 c0be 7591 c4bd 98fb d43c 447c 9b3d
000002d0: 614e 2ebd 1737 2dbd dc84 8f3e 99ef 96bd
000002e0: 4f0b bcbe e391 49bc cfec 2e3e 2d3a 843d
000002f0: b32a f4bd f172 c03c a454 35bd 4951 733d
00000300: eaed 4bbe 30ff 143f aef3 81be bec3 683e
00000310: 240c 34be e7fc 00bd d13a 21be bd11 0d3d
00000320: f432 febd bbc2 9ebe d64a 2abe dfc9 b7be
00000330: f7b7 57be 8814 06be a26d a5be 328f 31be
00000340: 5600 52be 8e00 6abe 38ba 8d3e 5f1f 66bd
00000350: 2141 72be 55bb a33a eab3 efbd 4403 4a3d
00000360: 9de8 3dbe 13f1 7dbe 5761 b23d 9e2c 363e
00000370: 9c5d 6fbe d62a 3f3c 15cd 0dbe 1b78 29be
00000380: 7af7 92be 034a cebd bcd6 21be ec46 813b
00000390: 84f3 8d3e 665e 46be aaf0 bb3c ff30 943e
000003a0: 1e08 ccbe 6e2b 983e 7e50 b83d 46f6 eabd
000003b0: ea79 453e 4674 26be 41c7 5bbe e4f8 9fbe
000003c0: c104 493a ca71 633e 0326 9c3d 1813 51be
000003d0: c162 7e3e 791a 1fbd 5ec7 273e 9df5 723d
000003e0: 71d9 9bbd 4032 6abe d5b3 8d3e fc5d b0bd
000003f0: 2301 99bd 87df a03e b028 9e3d e38f 11be

batch_norm.running_mean f4 [400]
0.414839 0.18920837 -0.41833964 0.10858726 -0.5234536 -0.05497833 0.19788072 0.24472463
-0.26463142 0.3120679 -0.2890445 -0.20237738 -0.05202388 -0.26880562 -0.0029094182 -0.2026986
-0.23401856 0.28425527 0.15768313 -0.24151416 0.12190288 0.28193274 -0.08172788 0.16963784
-0.061404243 -0.07799775 0.82091767 0.15450628 -0.51410544 -0.011613876 0.16295074 0.27958846
0.099782154 -0.24590011 -0.16517213 0.03494298 0.17196497 0.3619386 -0.011729548 -0.012312233
0.13351038 0.05631652 -0.64271134 0.31826591 0.4912195 -0.072509214 0.6455344 0.3768565
0.26826268 -0.010999739 -0.07929764 0.3107039 -0.09260464 0.19968246 -0.21188161 -0.5640429
0.7028095 -0.39216813 -0.1776396 -0.26879033 0.4996157 0.02736437 0.5344147 0.15842274
0.16492563 0.23280518 0.14031458 0.19419596 0.07458438 0.015393041 -0.36127606 -0.7776954
0.09904683 0.420699 -0.4452604 -0.29455027 0.2567754 0.29151022 -0.18183054 -0.37786955
-0.45057788 -0.08864616 -0.22197759 0.023549944 -0.10580691 -0.017080251 0.1398101 -0.2607547
-0.7752803 0.29420558 -0.4318888 -0.41257107 0.3950018 -0.10491034 0.38226137 0.03688141
0.1370622 -0.077523984 0.08667119 0.5023714 0.1401391 -0.11812226 0.12249228 0.06361294
-0.043112613 0.29018736 -0.19169019 0.29686654 -0.10982377 -0.09099349 0.055237338 -0.06629379
-0.09381436 0.037556857 0.23657756 0.058240317 0.44232056 -0.16706102 0.034982003 -0.13079101
0.42771912 0.77691543 -0.155795 0.0238931 0.26561892 -0.38295826 0.03880917 -0.4819256
0.115096055 0.5270942 0.256614 0.25097403 -0.30235195 0.1267925 0.053280894 -0.0784582
0.43446568 0.07233871 -0.67756504 -0.6230847 -0.2049374 0.077272914 0.20031169 -0.029406775
-0.32458967 -0.21167147 0.18188658 0.15584575 0.11881998 -0.030082105 0.19400688 0.12970704
0.121570475 -0.09856 0.39490822 -0.2146965 -0.15100245 0.11521728 0.1536942 -0.0126948515
0.23402454 0.8002453 0.3114869 0.33296543 0.20068796 -0.1118082 0.041801207 0.35002688
-0.11691683 0.2481788 -0.43195283 -0.07036851 -0.2616134 0.46642426 0.10369624 -0.31676912
0.04727004 -0.49263442 -0.47620034 -0.15120399 0.038066927 0.50236714 0.38784936 -0.14554133
-0.3935648 0.18522789 -0.24307944 -0.07711021 -0.11373079 -0.11521658 -0.14427362 0.19936743
-0.23284803 0.69695073 -0.06501611 0.11019386 0.23959078 0.034537215 -0.103847995 0.029226873
-0.08957102 0.24990189 -0.22310379 -0.4890447 0.43931726 -0.06081979 -0.05501928 -0.1599421
0.12588188 -0.24481694 -0.10898623 0.17207484 0.05746171 -0.55676454 0.10614422 0.25166848
-0.0479433 0.09557003 0.46585113 -0.2195778 -0.36524186 -0.36275566 -0.3418626 -0.055397198
0.074445575 -0.24926876 -0.44149703 -0.35839143 0.9652896 0.1249008 -0.0907573 0.29780507
-0.41092253 0.014481735 0.31283677 0.3125931 0.090511456 0.12502618 -0.18283714 0.015465513
-0.12115858 0.0018290967 -0.04431693 -0.05126594 0.016636295 0.1524677 -0.120217815 -0.12047742
0.5020995 0.003568743 0.06592929 0.10209394 -0.21558717 -0.10021463 0.41174078 0.1343611
00000000: c765 d43e d7bf 413e 9d30 d6be ff62 de3d
00000010: 0e01 06bf f530 61bd 3ea1 4a3e 1899 7a3e
00000020: c57d 87be 5dc7 9f3e a4fd 93be 043c 4fbe
00000030: fe16 55bd e4a0 89be f0ab 3ebb 3990 4fbe
00000040: 90a2 6fbe e889 913e b077 213e 7d4f 77be
00000050: 38a8 f93d 7d59 903e f260 a7bd 8bb5 2d3e
00000060: 0483 7bbd 49bd 9fbd a927 523f e536 1e3e
00000070: 6a9c 03bf 2048 3ebc 8fdc 263e 3826 8f3e
00000080: 965a cc3d 3dcd 7bbe e222 29be 5f20 0f3d
00000090: 9617 303e 0450 b93e 4a2d 40bc 40b9 49bc
000000a0: f2b6 083e 27ac 663d bb88 24bf c0f3 a23e
000000b0: 1f81 fb3e b67f 94bd be41 253f 56f3 c03e
000000c0: ba59 893e 4038 34bc cd66 a2bd 9514 9f3e
000000d0: 80a7 bdbd 8f79 4c3e 7ef7 58be 1e65 10bf
000000e0: 53eb 333f 43ca c8be 28e7 35be e39e 89be
000000f0: a1cd ff3e 3e2b e03c 67cf 083f 9239 223e
00000100: 44e2 283e 7b64 6e3e a0ae 0f3e 4edb 463e
00000110: b2bf 983d 1833 7c3c 2df9 b8be 0c17 47bf
00000120: 10d9 ca3d dc65 d73e 2cf9 e3be 4bcf 96be
00000130: 1178 833e d440 953e c931 3abe 1e78 c1be
00000140: 25b2 e6be 1e8c b5bd 184e 63be d0eb c03c
00000150: 4bb1 d8bd e2eb 8bbc 612a 0f3e a481 85be
00000160: c578 46bf 1da2 963e 8720 ddbe 843c d3be
00000170: ad3d ca3e 3bdb d6bd c3b7 c33e f610 173d
00000180: 095a 0c3e e5c4 9ebd aa80 b13d 699b 003f
00000190: a080 0f3e 15ea f1bd 3cdd fa3d 8047 823d
000001a0: da96 30bd 7093 943e 6f4a 44be e4fe 973e
000001b0: 49eb e0bd cb5a babd 8c40 623d 0ac5 87bd
000001c0: be21 c0bd 38d5 193d 6341 723e 668d 6e3d
000001d0: d777 e23e 0b12 2bbe 4a49 0f3d 14ee 05be
000001e0: 00fe da3e eee3 463f b988 1fbe 76bb c33c
000001f0: 34ff 873e 1b13 c4be 5df6 1e3d f4be f6be
00000200: 7bb7 eb3d a5ef 063f e962 833e ab7f 803e
00000210: e0cd 9abe e5d5 013e 113d 5a3d b1ae a0bd
00000220: 4972 de3e 5126 943d e774 2dbf 7b82 1fbf
00000230: 1cdb 51be 4341 9e3d 821e 4d3e 7ae6 f0bc
00000240: 9e30 a6be 68c0 58be 7a40 3a3e 0796 1f3e
00000250: e457 f33d bf6e f6bc bda9 463e ecd1 043e
00000260: f1f9 f83d d3d9 c9bd 6931 ca3e 66d9 5bbe
00000270: 63a0 1abe 0af7 eb3d 0362 1d3e 11fe 4fbc
00000280: 21a4 6f3e e0dc 4c3f 367b 9f3e 727a aa3e
00000290: 2581 4d3e b3fb e4bd be37 2b3d b936 b33e
000002a0: 1772 efbd 9522 7e3e ec28 ddbe 5e1d 90bd
000002b0: 31f2 85be 29cf ee3e b25e d43d 902f a2be
000002c0: 3b9e 413d 943a fcbe 88d0 f3be 38d5 1abe
000002d0: 11ec 1b3d 229b 003f 3194 c63e c908 15be
000002e0: 5381 c9be 61ac 3d3e d1e9 78be f5eb 9dbd
000002f0: b0eb e8bd acf6 ebbd 77bc 13be fa26 4c3e
00000300: b76f 6ebe 5d6b 323f 2b27 85bd 52ad e13d
00000310: 4957 753e e576 0d3d 42ae d4bd 326d ef3c
00000320: 0371 b7bd 48e6 7f3e 5275 64be 1164 fabe
00000330: 31ee e03e 2c1e 79bd e65b 61bd ddc7 23be
00000340: 2ee7 003e 4bb1 7abe 2c34 dfbd 6334 303e
00000350: f85c 6b3d 1f88 0ebf 2462 d93d b1da 803e
00000360: 3260 44bd 38ba c33d 0a84 ee3e 01d9 60be
00000370: fb00 bbbe 1cbb b9be 9d08 afbe 2ce8 62bd
00000380: ec76 983d 4f40 7fbe e60b e2be 157f b7be
00000390: 381d 773f fecb ff3d f7de b9bd e879 983e
000003a0: 7064 d2be cd44 6d3c 242c a03e 340c a03e
000003b0: 125e b93d dd06 003e a939 3bbe 1063 7d3c
000003c0: fd21 f8bd 4dbe ef3a ab85 35bd 3cfc 51bd
000003d0: d748 883c 7e20 1c3e c234 f6bd debc f6bd
000003e0: 9889 003f 92e1 693b f005 873d a116 d13d
000003f0: e2c2 5cbe 543d cdbd b0cf d23e f595 093e

batch_norm.running_var f4 [400]
0.53946173 0.19251664 0.12624861 0.25571507 0.6168356 0.16865577 0.1377701 0.14840472
0.4490304 0.19463922 0.1490812 1.2530392 0.15694103 0.17438348 1.8463233 0.20445512
0.7305914 0.4845031 0.4659255 0.17751175 1.294434 2.037076 0.09341031 0.83876395
1.059266 0.15431704 0.5645947 0.32704622 1.1112202 0.07638746 0.11536195 1.299838
0.28140447 0.57124966 1.1819435 1.0603592 0.0654239 0.48392335 0.17238268 1.5431793
0.20477377 0.8119618 0.09963384 0.31944302 0.3237614 1.1621269 0.56799895 0.39102334
0.4706491 0.25527635 0.8478341 0.12430692 1.8361107 0.27082303 0.3674271 0.65456957
0.2852145 0.03956692 1.1194441 0.6309327 0.4728132 0.6436599 0.36123693 1.0522665
0.21277802 0.31878114 1.2549274 0.44970867 0.11516132 0.21384436 1.6058875 0.764858
0.5960312 1.3492367 0.31926492 0.3770133 0.3255951 1.2060983 0.2072364 1.3736012
0.2233051 0.4619146 0.061077826 0.6056514 0.08620725 0.5622107 0.11498424 1.4243879
0.28571528 0.28945816 0.030126086 0.4463792 1.4651757 0.1287356 0.12626426 0.38404575
0.4585691 0.4334629 0.036219735 0.73985696 0.12342772 0.60172504 0.6571233 0.98574674
0.11724399 0.6427273 0.52379894 1.1042899 0.19604687 0.20925368 0.5566343 0.22885385
0.57054687 1.2245157 0.71092504 0.5695443 0.18358271 0.65687466 0.24650864 0.1393237
0.6728758 0.3948692 0.83727705 0.0730767 1.2293792 0.92412674 2.0190732 0.764834
0.13583851 0.28603753 0.5056515 1.6026466 0.489311 0.29468238 0.29608777 0.04164345
0.36699477 0.019788235 0.291089 0.34730196 0.27973756 0.41630816 0.14827764 0.06563633
1.5794759 0.31254974 0.15584984 0.5241689 0.35273647 0.14846393 0.6257512 1.6698513
0.30997166 0.029206485 0.11858859 1.1458949 0.22958253 0.031670976 0.2754754 0.11848608
0.11273678 0.48515072 1.2786247 1.687695 0.17895357 0.91078687 0.52588326 0.16853917
0.35414547 1.4906564 0.6856621 0.5611084 0.3762174 1.2972121 0.4608228 0.316636
1.0283259 0.042782225 0.37526178 0.20990767 0.19461699 0.6458092 0.8513962 0.16785243
0.6068105 0.17547719 1.5833224 0.7528902 0.7528691 0.9632332 0.8348989 0.22744215
0.8768269 0.3119807 0.45111293 1.6213783 1.5586001 0.0651634 0.1393852 0.8414037
0.12974761 0.15338027 1.1773647 0.4442943 0.2516774 0.48000622 0.39483133 0.81355673
0.8590427 0.21548516 0.16931279 0.72060156 0.863862 0.23308986 0.41750628 0.08226759
0.23729406 0.71932137 0.986956 1.829152 0.42359945 1.0585151 0.06370022 0.21511579
0.19272739 0.3102739 0.41765246 0.09172755 1.2029532 0.7605792 1.0526907 0.097985
0.26114956 0.7578824 0.026359683 0.16104056 0.15246698 0.14178216 0.21773104 0.250901
0.3148344 1.3054689 1.3289073 0.13010395 0.40581545 1.2284901 0.31243286 1.2836425
0.7641334 0.18473233 0.036640964 0.59901106 0.046120726 0.6261686 1.6567835 0.04436312
00000000: 2a1a 0a3f 1523 453e 5147 013e 16ed 823e
00000010: f0e8 1d3f 19b4 2c3e 9b13 0d3e 68f7 173e
00000020: 50e7 e53e 814f 473e bea8 183e 9763 a03f
00000030: 26b5 203e 9591 323e 5254 ec3f af5c 513e
00000040: 0a08 3b3f ca10 f83e ca8d ee3e a4c5 353e
00000050: 03b0 a53f 745f 0240 e84d bf3d 3cb9 563f
00000060: 0796 873f 4905 1e3e 4789 103f 9a72 a73e
00000070: 773c 8e3f 0771 9c3d e342 ec3d 1761 a63f
00000080: 3f14 903e 6b3d 123f ed49 973f dab9 873f
00000090: f7fc 853d cdc4 f73e 1685 303e e686 c53f
000000a0: 37b0 513e bbdc 4f3f d40c cc3d 098e a33e
000000b0: 0ec4 a53e 93c0 943f 6168 113f 3634 c83e
000000c0: ebf8 f03e 95b3 823e a80b 593f a094 fe3d
000000d0: ad05 eb3f 51a9 8a3e 681f bc3e df91 273f
000000e0: a307 923e ec10 223d f249 8f3f ce84 213f
000000f0: 9214 f23e e5c6 243f 0cf4 b83e abb0 863f
00000100: 7be2 593e 4837 a33e 76a1 a03f 3740 e63e
00000110: b3d9 eb3d 04fa 5a3e b98d cd3f bccd 433f
00000120: 8095 183f cab3 ac3f b176 a33e e307 c13e
00000130: 67b4 a63e 6e61 9a3f c735 543e 2ad2 af3f
00000140: 18aa 643e 1280 ec3e be2c 7a3d f80b 1b3f
00000150: 6d8d b03d 0aed 0f3f db7c eb3d 5852 b63f
00000160: 4649 923e dc33 943e fbca f63c d18b e43e
00000170: e18a bb3f 44d3 033e 6b4b 013e a5a1 c43e
00000180: 92c9 ea3e d9ee dd3e 255b 143d 4467 3d3f
00000190: acc7 fc3d a70a 1a3f 3c39 283f e659 7c3f
000001a0: 9e1d f03d c789 243f b017 063f 5f59 8d3f
000001b0: 83c0 483e 9946 563e 967f 0e3f aa58 6a3e
000001c0: 5c0f 123f eebc 9c3f 2fff 353f a8cd 113f
000001d0: 1bfd 3b3e f028 283f c36c 7c3e dfaa 0e3e
000001e0: 9741 2c3f 4c2c ca3e ca57 563f 3da9 953d
000001f0: 4c5c 9d3f 9293 6c3f 7f38 0140 29cc 433f
00000200: 4019 0b3e 8373 923e 6072 013f 8623 cd3f
00000210: f986 fa3e 9ce0 963e d198 973e 5292 2a3d
00000220: bde6 bb3e f01a a23c 9e09 953e 90d1 b13e
00000230: c339 8f3e 5826 d53e 18d6 173e 576c 863d
00000240: 442c ca3f 8506 a03e 1a97 1f3e ef2f 063f
00000250: e099 b43e ee06 183e 3b31 203f b0bd d53f
00000260: 9bb4 9e3e 7042 ef3c 93de f23d afac 923f
00000270: af17 6b3e 6db9 013d 1d0b 8d3e d4a8 f23d
00000280: 8ae2 e63d ad65 f83e f9a9 a33f 6406 d83f
00000290: 9b3f 373e 5429 693f 49a0 063f 8895 2c3e
000002a0: 8e52 b53e d4cd be3f 8d87 2f3f cda4 0f3f
000002b0: 919f c03e 0c0b a63f f7f0 eb3e 1d1e a23e
000002c0: 2fa0 833f 6a3c 2f3d 5022 c03e 09f2 563e
000002d0: ad49 473e c053 253f 1af5 593f 82e1 2b3e
000002e0: ef57 1b3f 4bb0 333e 4faa ca3f 6abd 403f
000002f0: 08bc 403f 7396 763f efbb 553f 98e6 683e
00000300: ba77 603f efbb 9f3e 46f8 e63e 5389 cf3f
00000310: 3580 c73f 6374 853d feba 0e3e 3c66 573f
00000320: 8fdc 043e b80f 1d3e e3b3 963f 8b7a e33e
00000330: dcdb 803e 60c3 f53e 5527 ca3e 4145 503f
00000340: 39ea 5b3f 24a8 5c3e 5560 2d3e 5879 383f
00000350: 0f26 5d3f 1caf 6e3e 62c3 d53e e97b a83d
00000360: 37fd 723e 7225 383f 26a9 7c3f a721 ea3f
00000370: 07e2 d83e 6c7d 873f 4375 823d 5047 5c3e
00000380: 545a 453e 38dc 9e3e 8bd6 d53e a7db bb3d
00000390: 5ffa 993f 52b5 423f 92be 863f 5cac c83d
000003a0: 65b5 853e 9504 423f 43f0 d73c d1e7 243e
000003b0: 4e20 1c3e 582f 113e e3f4 5e3e 1976 803e
000003c0: f931 a13e 9b19 a73f a219 aa3f f839 053e
000003d0: 0bc7 cf3e 2a3f 9d3f 33f7 9f3e 664e a43f
000003e0: 3f9e 433f 792a 3d3e d614 163d ca58 193f
000003f0: 16e9 3c3d 964c 203f 7b11 d43f 1ab6 353d

fc2.weight f4 [300, 400]
0.0069450038 0.059928097 -0.16939497 0.024795763 0.018754596 -0.093252115 -0.009507661 -0.036190636
0.239283 0.014719624 -0.023623513 0.021757906 -0.16852638 0.00045107037 -0.20307061 -0.14622603
-0.09028106 -0.13161962 -0.0035473132 -0.009018358 -0.12912835 -0.007865449 -0.0022803762 0.13987942
-0.18301754 -0.0708062 -0.051936388 -0.029327687 -0.041324373 0.038573574 0.055114836 0.031990357
-0.0015645464 0.14481616 -0.24403463 0.054450072 0.028282922 0.0018516032 0.024698824 0.011731613
-0.049243845 0.098797895 -0.14842215 0.09103164 0.09962706 0.119074725 -0.10491346 -0.05089766
-0.14550091 0.1552895 0.030910507 0.017826086 0.0793596 0.048538666 0.1778136 0.11862599
-0.035057116 0.1180499 -0.04433137 -0.033509612 0.14961706 0.1053256 -0.026670458 0.1102622
0.023497123 0.08999161 0.0247336 -0.05037633 0.010422352 0.017794076 -0.028796049 -0.04504319
-0.029825393 0.093140155 0.001815064 -0.02507339 -0.02777142 0.050825715 -0.1866805 -0.18406141
0.09271118 -0.05442672 -0.01007862 -0.1838158 -0.08921795 -0.13858844 -0.06795889 -0.071629025
-0.089478664 -0.022533076 -0.13304688 -0.040353272 -0.08835937 0.025108892 0.053689703 0.086722836
0.02543263 0.07447822 0.013582457 0.038587924 0.11099792 0.12579858 0.06471039 -0.12933117
-0.0006878256 0.07026107 -0.17023988 0.14227971 0.11215094 -0.19842502 -0.024100346 -0.091999196
0.04119267 0.011749639 -0.024733163 -0.11609242 -0.2117636 0.16590561 0.03882816 0.048613176
0.07667633 -0.080736905 -0.14364238 -0.0056862007 -0.025438547 -0.29526052 -0.15879677 -0.083555005
0.11430035 -0.07621243 -0.028098753 -0.035237703 0.014953204 -0.010322077 0.13107675 -0.010162111
0.17156371 0.06955231 -0.0667081 0.010381837 0.04232628 -0.056748822 0.11676327 -0.033271756
-0.06925053 0.034880422 0.015750224 0.093959846 0.004086146 -0.050203316 0.032927874 -0.02740115
-0.14748946 0.16275986 -0.025725422 0.08882309 0.07192549 0.029426517 -0.031737916 0.046899848
-0.109470755 -0.13699459 0.018400263 0.032463573 0.022279518 -0.09576005 -0.058692012 -0.16967322
0.19920091 -0.026901107 0.024873173 -0.08679012 -0.058732178 0.08978629 -0.0046258224 -0.12198453
-0.09911807 0.0003689168 -0.085725464 0.008441593 -0.024741244 -0.013702304 -0.18503377 0.013919533
0.044202887 0.0904099 -0.15020965 -0.11227766 -0.060792085 -0.044729725 -0.041347243 -0.021664925
-0.09022986 -0.21889211 0.04045608 -0.13248633 0.03275335 0.13253762 0.0020041561 -0.16557568
-0.10252323 0.13915378 0.025580427 -0.06485303 -0.078164116 -0.05647187 -0.11411663 0.09321896
-0.1390369 0.15691657 -0.13577789 -0.17741649 0.24001673 0.027322007 0.17343724 -0.04582401
0.03928305 0.14189525 0.008027873 -0.10682855 0.058946207 -0.0852949 0.048558746 -0.10259886
0.11365092 -0.22902746 -0.050384965 -0.096273884 -0.07814963 -0.044472057 -0.07581414 -0.1152857
-0.07476626 -0.12078189 0.102229595 0.067807116 -0.13447002 0.064299 0.026619049 0.07616776
0.015612052 -0.051288832 -0.07853521 -0.05238098 0.06499025 -0.01823591 -0.15157068 0.0050168387
0.052383713 0.0061381375 0.18035473 -0.030229734 0.1517057 -0.26469183 -0.014886985 -0.044575445
00000000: ea92 e33b 2a77 753d e075 2dbe 7c20 cb3c
00000010: 3da3 993c f7fa bebd 05c6 1bbc a23c 14bd
00000020: 9a06 753e 942a 713c 1986 c1bc a33d b23c
00000030: 2e92 2cbe a47d ec39 bef1 4fbe 47bc 15be
00000040: 47e5 b8bd 4bc7 06be 0a7a 68bb bcc1 13bc
00000050: 393a 04be 16de 00bc 5d72 15bb 8d3c 0f3e
00000060: f368 3bbe d702 91bd 40bb 54bd 9e40 f0bc
00000070: bf43 29bd 53ff 1d3d 18c0 613d 5208 033d
00000080: 7711 cdba b04a 143e 37e4 79be 0a07 5f3d
00000090: 96b1 e73c 7eb1 f23a 3055 ca3c f435 403c
000000a0: eab3 49bd 8d56 ca3d fafb 17be cc6e ba3d
000000b0: 4609 cc3d 73dd f33d dedc d6bd 117a 50bd
000000c0: 31fe 14be 3604 1f3e 0838 fd3c 0308 923c
000000d0: 4987 a23d 7bd0 463d c514 363e 2ff2 f23d
000000e0: 0d98 0fbd 25c4 f13d d094 35bd 6041 09bd
000000f0: 3735 193e f3b4 d73d 017c dabc 26d1 e13d
00000100: 0a7d c03c 854d b83d 1e9e ca3c 6957 4ebd
00000110: 83c2 2a3c e2c4 913c b1e5 ebbc 357f 38bd
00000120: 6254 f4bc 44c0 be3d 71e7 ed3a b666 cdbc
00000130: e480 e3bc a02e 503d 2c29 3fbe 987a 3cbe
00000140: 5cdf bd3d 8dee 5ebd cc20 25bc 363a 3cbe
00000150: e7b7 b6bd 21ea 0dbe 082e 8bbd 3db2 92bd
00000160: 9740 b7bd 4997 b8bc 713d 08be 7949 25bd
00000170: c2f5 b4bd 2ab1 cd3c bce9 5b3d be9b b13d
00000180: 1758 d03c 0988 983d f488 5e3c 5f0e 1e3d
00000190: e152 e33d 58d1 003e e286 843d 646f 04be
000001a0: 324f 34ba 09e5 8f3d 5d53 2ebe c6b1 113e
000001b0: 64af e53d ee2f 4bbe 176e c5bc 136a bcbd
000001c0: a5b9 283d 8f81 403c 349d cabc ddc1 edbd
000001d0: 8fd8 58be 29e3 293e 470a 1f3d 9c1e 473d
000001e0: 7b08 9d3d 6459 a5bd fd16 13be 4f53 babb
000001f0: 8064 d0bc 632c 97be 9f9b 22be e31e abbd
00000200: 4d16 ea3d 4315 9cbd 5b2f e6bc 6955 10bd
00000210: 49fe 743c ee1d 29bc fc38 063e fc7e 26bc
00000220: 66ae 2f3e 7171 8e3d 429e 88bd 9518 2a3c
00000230: 525e 2d3d 7471 68bd 9521 ef3d f747 08bd
00000240: 39d3 8dbd c6de 0e3d 9d06 813c 056e c03d
00000250: 14e5 853b fea1 4dbd 61df 063d 6078 e0bc
00000260: 7a07 17be 85aa 263e 1fbe d2bc e1e8 b53d
00000270: ac4d 933d e10f f13c 9eff 01bd 0e1a 403d
00000280: 3432 e0bd 4f48 0cbe 26bc 963c 86f8 043d
00000290: 8983 b63c d81d c4bd 0967 70bd d1be 2dbe
000002a0: 53fb 4b3e b65f dcbc d3c2 cb3c 05bf b1bd
000002b0: 2791 70bd e0e1 b73d 3694 97bb 06d3 f9bd
000002c0: 6afe cabd 2d6b c139 d590 afbd 9b4e 0a3c
000002d0: 26ae cabc a17f 60bc 7e79 3dbe c10e 643c
000002e0: 160e 353d d328 b93d 8fd0 19be d4f1 e5bd
000002f0: 1f01 79bd 8436 37bd ba5b 29bd a47a b1bc
00000300: 6fca b8bd 4125 60be 46b5 253d 7faa 07be
00000310: 6028 063d f1b7 073e 2958 033b ac8c 29be
00000320: b3f7 d1bd 547e 0e3e 0b8e d13c aad1 84bd
00000330: 8214 a0bd 0c4f 67bd fbb5 e9bd 95e9 be3d
00000340: b05f 0ebe bdae 203e 5c09 0bbe abac 35be
00000350: f2c6 753e 67d2 df3c 8899 313e f5b1 3bbd
00000360: 43e7 203d fd4c 113e 5787 033c edc8 dabd
00000370: 9471 713d 18af aebd 89e5 463d 5a1f d2bd
00000380: d0c1 e83d 2d86 6abe 7760 4ebd 3e2b c5bd
00000390: ea0c a0bd 5528 36bd 7244 9bbd e91a ecbd
000003a0: 0e1f 99bd 7f5c f7bd c05d d13d 75de 8a3d
000003b0: 82b2 09be 32af 833d 3110 da3c d8fd 9b3d
000003c0: b1c9 7f3c 3d14 52bd 11d7 a0bd 708d 56bd
000003d0: 9c19 853d 7a63 95bc 5835 1bbe 4b64 a43b
000003e0: 4e90 563d 6e22 c93b e9ae 383e 59a4 f7bc
000003f0: bd58 1b3e b085 87be 8ae8 73bc be94 36bd

fc2.bias f4 [300]
-0.20990193 -0.02002935 0.23352937 -0.27636266 -0.17241378 -0.23056869 0.15500933 0.05043219
0.052222654 -0.016388034 0.10020899 -0.09156564 0.16970961 0.06624991 0.02758553 0.14444654
0.003595052 0.11082676 -0.012037498 -0.11130564 -0.16763651 0.11721159 -0.22222838 0.026280906
-0.049544927 0.04147881 -0.073781356 -0.04062549 0.18873008 -0.03553148 0.11712249 0.06976325
0.292333 0.15027356 0.04364036 -0.024687413 -0.098506495 0.049592383 0.04907744 0.055973485
-0.021971334 0.22616154 -0.06081478 0.07357866 -0.072540745 0.10771144 -0.1259085 0.22700888
-0.050810374 -0.1960392 -0.15569681 0.09247034 -0.03291465 -0.21481836 0.22586474 -0.087618105
0.15638272 0.053269017 0.12040847 0.16873433 -0.056965593 0.14956437 -0.016903713 -0.17567082
0.10915264 0.03936599 -0.20396234 -0.10511629 -0.14349453 0.10814876 -0.22956683 -0.18298694
-0.087802924 -0.11313909 0.12298443 0.00035855104 -0.04681619 -0.103109844 -0.2629447 -0.1369317
0.0573269 0.14092243 0.06463129 -0.13362367 -0.15333302 -0.18837829 0.07908249 -0.031676173
0.08169127 -0.09091373 -0.03928962 -0.15608127 0.18143697 -0.10303381 -0.021435067 0.13605236
0.24358155 -0.02060322 0.0669449 0.092799075 -0.14204814 0.1574809 -0.27030656 -0.27760285
-0.18255839 0.25094905 0.025083674 -0.26674867 -0.045323826 0.16508134 -0.026364695 -0.011210713
0.13105963 0.13215151 -0.11693466 -0.06327567 -0.0028798021 -0.16643997 -0.27804595 -0.21580201
-0.15958591 0.1353073 -0.054371372 -0.08206126 -0.19742167 0.17850086 -0.11371057 0.16900189
-0.14099441 -0.111761004 0.030569794 -0.25975502 -0.100177616 0.056851346 -0.23820454 -0.033614777
-0.28155658 0.12286234 -0.09250032 -0.18240048 0.105480775 0.04230853 -0.23372784 0.11129209
0.09541087 -0.105691366 -0.28644276 -0.26598415 -0.15056661 0.018671712 -0.017538862 -0.09356039
-0.22961213 0.10621013 -0.05806125 -0.22442725 -0.11398671 -0.10141294 -0.048261706 0.09580825
0.03518989 -0.19864294 0.09808715 -0.042192582 -0.25901183 0.073062755 0.06774978 -0.17522506
-0.06307236 -0.03411994 -0.085440114 -0.060729288 0.033490356 0.08510684 -0.06606224 0.14856832
-0.054440342 0.30083832 0.19504039 -0.08713047 0.08405014 -0.06353443 0.014768278 -0.13335639
0.041834135 -0.17456277 0.17348197 0.06962876 0.019067936 -0.12787223 0.24306324 0.1021529
-0.024550764 -0.024454327 -0.15641242 -0.015592188 0.03358106 -0.02995453 -0.34478 0.10127718
0.019171264 0.15147808 -0.2813874 0.00089255034 -0.023393802 0.082719855 -0.040968753 -0.20908009
-0.19828364 -0.2840049 0.013520874 0.053739756 0.26301837 0.08912365 -0.124914534 0.057022247
-0.04675129 -0.1746452 -0.1856057 -0.0001597072 -0.011554164 -0.05981315 -0.18781616 -0.07332528
-0.2912942 0.04808421 -0.064263694 0.09199339 -0.026421921 -0.15127589 0.16518475 -0.050593417
0.16468881 -0.26090544 -0.22246973 -0.068553366 -0.30131507 -0.0894481 0.19763324 -0.23799264
0.023748267 0.108337894 0.10206959 0.061330624 -0.25788596 -0.035030607 -0.2653985 0.2539536
-0.07015042 -0.14366372 0.04129228 -0.10687156 -0.1147522 -0.23029648 -0.020996505 -0.07772896
00000000: 88f0 56be 9714 a4bc 5322 6f3e 687f 8dbe
00000010: 3d8d 30be 331a 6cbe c4ba 1e3e fc91 4e3d
00000020: 6ce7 553d 3340 86bc 5f3a cd3d c486 bbbd
00000030: 5bc8 2d3e 08ae 873d 0dfb e13c cbe9 133e
00000040: f79a 6b3b 24f9 e23d ed38 45bc 36f4 e3bd
00000050: e8a8 2bbe a10c f03d d68f 63be 0e4b d73c
00000060: 9fef 4abd afe5 293d ae1a 97bd ea66 26bd
00000070: 7542 413e 7589 11bd ebdd ef3d 09e0 8e3d
00000080: acac 953e 50e1 193e 3cc0 323d 423d cabc
00000090: c6bd c9bd 6221 4b3d 6d05 493d 7444 653d
000000a0: 3afd b3bc e496 673e eb18 79bd 69b0 963d
000000b0: 3e90 94bd d197 dc3d 28ee 00be 0475 683e
000000c0: 8a1e 50bd 80be 48be fc6e 1fbe 1761 bd3d
000000d0: 83d1 06bd 58f9 5bbe 1649 673e 1f71 b3bd
000000e0: cb22 203e 9d30 5a3d b798 f63d b1c8 2c3e
000000f0: c154 69bd 6727 193e a879 8abc 0de3 33be
00000100: 6b8b df3d 3b3e 213d 81db 50be 3647 d7bd
00000110: 3bf0 12be 197d dd3d 9113 6bbe ee60 3bbe
00000120: 05d2 b3bd 78b5 e7bd 43df fb3d e8fb bb39
00000130: 55c2 3fbd 412b d3bd b0a0 86be d337 0cbe
00000140: 9dcf 6a3d f84d 103e 695d 843d a5d4 08be
00000150: 5503 1dbe 3de6 40be 00f6 a13d e0be 01bd
00000160: c14d a73d fa30 babd 27ee 20bd c5d3 1fbe
00000170: 9dca 393e 6403 d3bd 9898 afbc 4f51 0b3e
00000180: 716d 793e 16c8 a8bc 681a 893d 710d be3d
00000190: 1175 11be ac42 213e 9f65 8abe f621 8ebe
000001a0: 96f0 3abe 657c 803e 477c cd3c 4893 88be
000001b0: 7aa5 39bd 150b 293e c6fa d7bc 23ad 37bc
000001c0: 7f34 063e ba52 073e 707b efbd ad96 81bd
000001d0: 10bb 3cbb 3d6f 2abe 0a5c 8ebe 34fb 5cbe
000001e0: 7d6a 23be ff8d 0a3e 84b4 5ebd bc0f a8bd
000001f0: e828 4abe eec8 363e 16e1 e8bd d50e 2d3e
00000200: d760 10be f4e2 e4bd 816d fa3c 9cfe 84be
00000210: ec29 cdbd f5dc 683d e4eb 73be a6af 09bd
00000220: 2f28 90be 409f fb3d cf70 bdbd 31c7 3abe
00000230: 4e06 d83d b64b 2d3d 5a56 6fbe 1bed e33d
00000240: c666 c33d b774 d8bd a0a8 92be 132f 88be
00000250: 222e 1abe 6bf5 983c a9ad 8fbc 979c bfbd
00000260: 711f 6bbe b284 d93d a2d1 6dbd 42d0 65be
00000270: dd71 e9bd 96b1 cfbd 11ae 45bd 1e37 c43d
00000280: 4623 103d 0e69 4bbe eae1 c83d 21d2 2cbd
00000290: 339d 84be eda1 953d 66c0 8a3d 336e 33be
000002a0: 152c 81bd 5ac1 0bbd 3afb aebd 46bf 78bd
000002b0: 2f2d 093d 7f4c ae3d a44b 87bd 4b22 183e
000002c0: d6fc 5ebd 7b07 9a3e abb8 473e 7671 b2bd
000002d0: 7b22 ac3d 571e 82bd a6f6 713c 948e 08be
000002e0: 455a 2b3d 95c0 32be 42a5 313e 8699 8e3d
000002f0: 5c34 9c3c f0f0 02be 92e5 783e 8a35 d13d
00000300: af1e c9bc 7154 c8bc 942a 20be 6076 7fbc
00000310: 4b8c 093d 3463 f5bc 0187 b0be 696a cf3d
00000320: 0e0d 9d3c 121d 1b3e 0212 90be 0afa 693a
00000330: 5ca4 bfbc 0769 a93d dace 27bd 1719 56be
00000340: de0a 4bbe 1769 91be a886 5d3c 381e 5c3d
00000350: 58aa 863e 7686 b63d 31d3 ffbd 2990 693d
00000360: 487e 3fbd 31d6 32be 6c0f 3ebe 1377 27b9
00000370: ad4d 3dbc a2fe 74bd e152 40be 902b 96bd
00000380: 8324 95be f3f3 443d af9c 83bd 0867 bc3d
00000390: c972 d8bc 11e8 1abe 3126 293e 0b3b 4fbd
000003a0: 2fa4 283e 6695 85be 1bcf 63be b565 8cbd
000003b0: f845 9abe 9130 b7bd 5e60 4a3e 58b4 73be
000003c0: ba8b c23c 42e0 dd3d dc09 d13d d235 7b3d
000003d0: a109 84be 417c 0fbd 50e2 87be 3506 823e
000003e0: 06ab 8fbd 951c 13be 1822 293d 7adf dabd
000003f0: 3403 ebbd d7d2 6bbe dd00 acbc 5c30 9fbd
