checkpoint_critic.pth (torch, 551815 bytes, 9 tensors)

fcs1.weight f4 [400, 33]
00000000: 8429 d03d 4bad 0abe fcb0 11be c293 33bf
00000010: 5670 233d a2ea 78be d358 903e 9b21 1dbe
00000020: d007 623d 8eff b5bd fab6 873e 9352 c5be
00000030: 1074 d33e ee6f ffbe d4e9 4b3b 26bb 3bbf
00000040: 8aee 09bf eae5 7f3f 83a9 ce3e 6716 b5be
00000050: 34d9 b73d 495b 783f 69ea 80bf 57db 033e
00000060: b39b eebd b95e f43d 1037 ea3e 59b6 3fbd
00000070: 2f0e 9cbe 811f 473d a028 88bc 6a8b fd3c
00000080: 11b0 2dbf d791 ca3e cabe 05be 5368 1cbf
00000090: c5ea ecbf ae81 983c 0373 893e f4f6 83be
000000a0: cebc 00be 0e8f 04bf 0011 babe 5638 7c3d
000000b0: cecc a0bd 68f0 1a3e 52c8 5abe a6a7 86be
000000c0: 33b1 633e 4b3c 52be 6554 cc3f 02da 593d
000000d0: f5ec fbbf 0f6d bebe caec 5c3f b535 bfbe
000000e0: 9387 63bc 743d 133e 2db9 60bc 1411 a73c
000000f0: 677b 153d 2bd5 f1bd 6cf7 36bc 874c 55bc
00000100: 6566 4cbd 0666 a9bd ee0e 6f3e 7b02 b9be
00000110: c668 e3be 8187 f6bf abf6 c93d dffe d33e
00000120: ae01 2fbf 0b4a 193d e26a b9bf 6521 d6bd
00000130: 7f78 9539 0c50 d3bd 8941 a7bc 33b7 3cbd
00000140: 1ce6 98bb e190 db3d b312 a4bf 98da 203f
00000150: d42a 24bf b4f5 1ac0 0c4f c63c 9991 2a3f
00000160: 50b2 06bc 78e0 21bd c7fa 2a3d a55b 4ebd
00000170: 9425 cabd 384a 4cbd b30a 923d c809 43bc
00000180: 9563 fd3c 7b7b 173d 5553 543f 5cce cf3e
00000190: 47cd b13e 1f68 203e a82d 993d 36e0 6ebe
000001a0: b2eb 3c3e e402 a83d 07fe 433d 682c b03e
000001b0: e395 0e3d 247c 2fbd 8fe5 2a3e 7586 223d
000001c0: 5529 94bf ba7b 5c3e 6cb1 83be 19d4 afbe
000001d0: 52f9 013e 0280 413d f051 fd3d 8822 4f3c
000001e0: f8f3 613e 0ef2 163d 6f3e 90be 7ad6 893e
000001f0: 07fc 1dbe 806e 903f 214b 493d 3a69 423d
00000200: 80f3 9abc 5349 fb38 4909 4a3d 3686 5bbe
00000210: c0dd 86be 6399 a03e 5c62 15bf aabd b23f
00000220: 9883 503e fd40 c1be 278a 39bd 0647 a3bb
00000230: 54ee 17bf ff7a 8abf fb31 a3be b3f1 98be
00000240: 7a4a 27be a70c 90be b5fa a13e b02f e6be
00000250: 2a5e 673e bea1 20bf 8870 1dbf 1c65 e9bc
00000260: 3e6e 2b3f 8f8d 0f3f ec95 24be a94f 72bc
00000270: 171b 48be 35b4 bb3e d17d 19be 9d6f f7bc
00000280: 3748 1b3e 4310 c8bc 88d6 2abd 1873 1abc
00000290: c756 513e 9fcb bcbd 9513 45be fee5 bd3e
000002a0: edaa 263e 512c ae3e 0de3 a7be a5b0 1b3f
000002b0: 46d6 773f 9bf0 923e b237 35be 196d 873d
000002c0: ca0a 103e f5c2 9abe 2018 d2bd 913e c3bb
000002d0: e43d 5c3c 305e 7cbf c1b9 283f 6ddd a8bf
000002e0: 7eb4 10c0 7d9d dd3e ccce bd3e 5049 053f
000002f0: 8358 8c3e 40ee 03bc 811c 34bd 5dfc 4fbd
00000300: 5399 8bbc 7bca 073e 6349 203d 1dbd f3bc
00000310: 5ea1 b53c b576 7f3e 06e3 923e f70e 873d
00000320: 0a48 ce3d d13a 8ebf c395 1abf d381 6ebc
00000330: f707 8fbe c2e3 1d3f ef8a aabf b51c 8fbf
00000340: 7c7c d0be 941f 383e c408 8a3e 6540 64be
00000350: cfa1 18bd 9098 8abc c97a 39bf d124 843f
00000360: 1b99 89be 3764 cb3f d953 e83e 08df 0d3f
00000370: 1e49 21bf ec80 453e 74a4 1c3e e45c 833d
00000380: 7e62 b23d 9638 0fbd 9270 963e ebc8 4c3d
00000390: a6ac ba3c f492 53bc 2c5e 07be b69a 363e
000003a0: 11da a13f 3170 36be 22fc 92be efd9 75bf
000003b0: 9ee2 76be ff42 6a3d 58e7 98be cc5c 823e
000003c0: b53a 3a3f 7868 f4bd 5e9d 8f3e 8f26 333e
000003d0: 84a3 193f 6d08 c13e 06a2 993b c9f4 27bf
000003e0: 0828 8e3d 4727 fbbd 8fe1 183d 676f 233c
000003f0: acaf a9bd 644b 9c3e 8c20 42bd 8020 b43e
0.101641685 -0.13542669 -0.1422767 -0.70147336 0.039902054 -0.24308255 0.28192768 -0.1534485
0.05518323 -0.08886634 0.26506788 -0.38539562 0.41299486 -0.49890083 0.0031114714 -0.7333244
-0.53879607 0.99960196 0.40363702 -0.35368654 0.08976975 0.9701429 -1.0071536 0.1287664
-0.11650791 0.119321294 0.45745134 -0.04680476 -0.3047957 0.04861403 -0.016620934 0.030950267
-0.6784678 0.39564392 -0.13061062 -0.61096686 -1.8509146 0.018616524 0.2684556 -0.25774348
-0.12572023 -0.51780784 -0.36341095 0.061577164 -0.078515634 0.1513077 -0.21365479 -0.2629978
0.22235565 -0.20530812 1.5963255 0.053186424 -1.9681689 -0.3719258 0.8629881 -0.37345663
-0.013887304 0.14378911 -0.013716024 0.020393886 0.03649464 -0.11808237 -0.011167388 -0.013018734
-0.04990234 -0.082714126 0.23345539 -0.36134705 -0.44415873 -1.9260103 0.09861501 0.4140539
-0.6836194 0.03742413 -1.4485743 -0.10455588 0.0002850927 -0.10318002 -0.020416992 -0.04607315
-0.004666103 0.10720993 -1.2818207 0.6283355 -0.6412785 -2.4212465 0.024207614 0.66628414
-0.008221224 -0.03952071 0.041743066 -0.050380368 -0.09870449 -0.049875468 0.07130947 -0.0119041875
0.030931273 0.036982995 0.82939655 0.40587127 0.34726927 0.15664719 0.07479411 -0.23327717
0.18449286 0.08203676 0.04784968 0.3440888 0.034810912 -0.042843 0.16689132 0.03967901
-1.1575114 0.21531573 -0.257213 -0.34341505 0.12692764 0.04724122 0.12369144 0.01264251
0.22065723 0.036851935 -0.28172633 0.26921445 -0.15428172 1.1283722 0.049143914 0.047463633
-0.018914938 0.000119822704 0.04932526 -0.21437916 -0.26341057 0.31367025 -0.5835321 1.3964131
0.20362699 -0.37744895 -0.045297768 -0.004982832 -0.59348035 -1.0818785 -0.3187407 -0.29871902
-0.16337004 -0.28134653 0.31636587 -0.44958258 0.22594514 -0.627468 -0.61499834 -0.028490596
0.6696509 0.56075376 -0.16072816 -0.0147895 -0.19541584 0.36660925 -0.14989401 -0.030204589
0.15164267 -0.024421817 -0.0417085 -0.009426855 0.20443259 -0.09218525 -0.19245751 0.37089533
0.1627614 0.34018186 -0.32790413 0.60816413 0.9681133 0.28699192 -0.17697027 0.066126056
0.14066616 -0.30226865 -0.10258508 -0.005958386 0.01344249 -0.9858122 0.6590844 -1.3192574
-2.2610164 0.43284217 0.37071836 0.5206499 0.2741128 -0.008052409 -0.043972496 -0.05077778
-0.017040884 0.13260834 0.039132487 -0.029753262 0.022171672 0.24947627 0.2868883 0.06594651
0.10072334 -1.1111699 -0.6038477 -0.01455732 -0.27935764 0.61675656 -1.3323649 -1.1180636
-0.40719974 0.17980796 0.26959813 -0.2229019 -0.037263688 -0.01691845 -0.7245298 1.0323735
-0.26874623 1.5889958 0.4537647 0.55418444 -0.6300219 0.19287461 0.15297109 0.06414202
0.08710192 -0.034966074 0.2938276 0.049996298 0.022787403 -0.012913454 -0.13219517 0.17832455
1.2644674 -0.17816235 -0.28707987 -0.96035665 -0.24109885 0.0571928 -0.29864 0.25461423
0.7274583 -0.11933988 0.2804975 0.17495178 0.6001513 0.3770174 0.004688504 -0.6560789
0.06941229 -0.12263351 0.037324484 0.009975291 -0.0828546 0.30526268 -0.04739432 0.35181046

fcs1.bias f4 [400]
00000000: 73f4 053e 79e1 60bd 193e 2bbe 4076 15b8
00000010: 185b 11be 161c c43d e720 303d ca25 fc3d
00000020: 2840 7ebc 7a50 01be 9742 0f3e df9e 00be
00000030: b287 df3d 4032 c33c 05da 733d ecae 07be
00000040: 7918 13be 0aa5 acbd 5ffe ebbd 39dd 19be
00000050: e44b 45bd 1255 2a3e c184 063e 8666 1f3e
00000060: e294 3b3d f781 05be 9d74 e43d b1a1 2e3e
00000070: 8641 e2bd 2390 1ebb 6638 1e3d eb29 c93d
00000080: e70f 423c 25fc 30be 59f4 a7bc 5d48 f3bd
00000090: 0a14 c33d 70ab fb3d 0504 803c e194 15be
000000a0: a748 69bd e9e5 7dbd 4f4d a53d 26bb d93d
000000b0: 6c24 e23d 76ad 65bd e8cb 8e3d 48ae 32bd
000000c0: e5c4 5e3c 76ed 163b a0d8 0ebe c4c1 2f3d
000000d0: 97c5 9e3b b4a7 bbbc 3e09 2fbe 8e25 f5bd
000000e0: 0f98 1b3e 0035 2dbe cfdf 9abd 442b a1bd
000000f0: 6f52 dc3d 7584 12bd 0e94 10be b64d 063e
00000100: 8c97 1e3e dc13 df3c c332 10be b2ff c43d
00000110: cc9a 9d3d dd60 cb3c 151a 90bc 8f0d 073d
00000120: 2412 09be b63f 043e f74e aebb 57e0 23be
00000130: 1752 113e a1e7 83bd 55ba 6c3c 3468 9f3d
00000140: 730e 1f3d 5ba8 0c3e c632 23be 0c90 423d
00000150: 7b92 3239 d60c fcbb 944a d4bd 74ce e8bd
00000160: 8c50 7c3d 1f51 523c d34b c83b 0e87 ce3d
00000170: 7857 cf3c f82c 493c 16be e63d a5ec 72ba
00000180: c39f 253e bd7e 12be d91d a33d ec69 353d
00000190: efa7 913c 70bf 53bd 2271 0abd 7458 553d
000001a0: 7174 693c cbdf 0fbe 10da 1cbe 584c b2bd
000001b0: 699e 2ebe 965b 6fbd a0cc 3a3d b04b d0bd
000001c0: 4b38 e63c 28fe 273e 98d4 aabd 86c7 223e
000001d0: 0e1d 0ebc 3bea 2dbe bd74 3cbd 8e17 fe3c
000001e0: 4d09 0c3e 50e6 68bd f3be f9bd aa6b 1b3e
000001f0: 4c6b f83c aa08 48bd ff17 a2bd c125 953d
00000200: a734 153e 546c 2fbc 23eb 063d c645 253d
00000210: 465e c9bc 82c3 b43d 7846 283e efc7 a93d
00000220: a25f 103e 35e4 523d 735a 06bd 257b 4e3d
00000230: c469 cbbd fe67 65bd d854 063d b671 633d
00000240: e1d8 0cbe f432 323d 58f7 c93d 23ac 0dbe
00000250: b516 853d a368 44bd 2d79 eb3d c7d0 2c3e
00000260: 2d9a b33d a64f 0bbe b92a 773d 3aff b0bd
00000270: 2dd2 003e f2fc 6f3d f484 9c3d 91af 04be
00000280: 4e4d 2fbe 79a9 e0bd f8de 243e f4c9 a73d
00000290: 6deb 3e3d 82b0 0ebe 0ac2 54bd d329 ef3b
000002a0: 4016 d3bc 537d 233e 174f 2cbe af14 02bd
000002b0: 2791 ef3d b212 e63d 70ce 07be de9e a43d
000002c0: b42d 77bc e85a e4bd 56c2 79bc 1653 06be
000002d0: 76be 56bd f01c 323e f4d6 15be 3c8c 0fbe
000002e0: 91c2 cc3d 027d d33d 7eec e4bd 44b1 3abd
000002f0: d43a 63ba ef05 11be 434d 3e3c 57cd 60bd
00000300: 9ca9 5ebd 8477 773d 6771 afbd 3582 763c
00000310: 374d 213e 1865 063e 8881 f03d 50d1 153e
00000320: 69ed 84bd 8863 213e f8b5 25be 7632 293e
00000330: b80b 313e fa67 b73d 6d72 133c f79a 393d
00000340: bd1a b2bd 281a d8bd 2c6d e6bd 64dd cb3d
00000350: ac9a 0dbe c6dc 7a3c 064f 753d c87c 04be
00000360: 6747 fdbd b62a 193b afc7 16be dc71 b93c
00000370: 36b9 f9bd cdeb e7bd fbd6 9fbd 6a39 283d
00000380: 340a 51bd a308 21be 3e7f 9dbd 8d39 56bd
00000390: fd4a 0d3e 3b35 063e e12d 4f3c 7305 8c3d
000003a0: 3222 30be ca84 5abc 23ac b23d 027d 823d
000003b0: 6173 a7bd 325b ea3d 0a97 823d da7b e1bd
000003c0: fc17 333d efd5 0dbe 9ab4 e03d c6e9 f13d
000003d0: cea5 64bb 66b3 8a3d d270 c6bd 3243 afbd
000003e0: 531e 07bd 43b8 f5bd ca4c f9bc ea98 87ba
000003f0: 2cf3 9fbd f774 e13d 26b7 683d deb3 c33d
0.13081531 -0.054902527 -0.16722907 -3.5634497e-05 -0.14194906 0.095756695 0.043000128 0.12311895
-0.015518226 -0.12628356 0.13990246 -0.12560605 0.10914554 0.023827672 0.05953409 -0.13250321
-0.14364804 -0.08429916 -0.11523127 -0.15025796 -0.048168078 0.16634014 0.13136579 0.15566453
0.045796283 -0.13037859 0.11155055 0.17053868 -0.11047654 -0.00241948 0.038628004 0.09822448
0.011844612 -0.17283686 -0.020502256 -0.118790366 0.095253065 0.122885585 0.015626917 -0.14607574
-0.056954052 -0.061986838 0.08071386 0.10631399 0.11042103 -0.05607363 0.06972486 -0.04362324
0.013596748 0.0023029721 -0.13949823 0.0429094 0.004845332 -0.022907116 -0.1709337 -0.119700536
0.15194725 -0.16914749 -0.07562219 -0.078695804 0.107579105 -0.035770852 -0.14118978 0.13115582
0.15487498 0.02723115 -0.14081864 0.096190825 0.07695541 0.024826461 -0.017590562 0.032971915
-0.13385826 0.12914929 -0.005319472 -0.16003548 0.14191471 -0.06440664 0.014448722 0.07783547
0.03883214 0.13736098 -0.15937337 0.047500655 0.00017029971 -0.00769196 -0.10365787 -0.11367503
0.061600253 0.012836724 0.0061125546 0.100843534 0.025310263 0.012278788 0.11266725 -0.000926683
0.16174226 -0.1430616 0.07964677 0.044290468 0.017780272 -0.05169624 -0.033799298 0.05208631
0.014248953 -0.14050214 -0.15317559 -0.08705968 -0.17052616 -0.058436953 0.0456053 -0.10170686
0.028103014 0.16405547 -0.0834133 0.15896425 -0.008673919 -0.16983883 -0.046009768 0.031017091
0.13675423 -0.056860268 -0.12194624 0.1517779 0.0303246 -0.048836388 -0.07914733 0.072825916
0.14570867 -0.01070698 0.032939088 0.040349744 -0.024581086 0.08826353 0.16433132 0.082900874
0.14098981 0.051487166 -0.032801103 0.05041041 -0.099322826 -0.056007378 0.032795757 0.055528365
-0.13754608 0.043505624 0.0986163 -0.13835196 0.06498472 -0.04795135 0.11497722 0.16876517
0.08769641 -0.13604602 0.060343478 -0.086424306 0.12580176 0.058590837 0.07642546 -0.12957598
-0.17119333 -0.10969824 0.16100681 0.081928164 0.04661124 -0.1393452 -0.051942863 0.007298687
-0.025767446 0.15965776 -0.16827045 -0.031758007 0.116976075 0.112340346 -0.13262343 0.08038114
-0.01508658 -0.111501515 -0.015244087 -0.13117632 -0.05242773 0.17393851 -0.1463278 -0.14018339
0.09998048 0.10326578 -0.1117792 -0.04557921 -0.0008668129 -0.1416242 0.0116151 -0.054883327
-0.05436097 0.060416713 -0.08566552 0.015045692 0.15752111 0.13124502 0.11743456 0.14630628
-0.06490595 0.15760624 -0.16182697 0.16523156 0.17289627 0.08955379 0.008999449 0.0453138
-0.08696506 -0.10551864 -0.11251292 0.09954336 -0.13828534 0.015311426 0.059889816 -0.12938225
-0.123671345 0.0023371405 -0.14724611 0.0226373 -0.12193529 -0.11324272 -0.07804676 0.04107038
-0.05103512 -0.15725951 -0.07690285 -0.05230098 0.13798137 0.13106243 0.012645216 0.06836977
-0.17200544 -0.013337323 0.08724239 0.063714996 -0.08176304 0.114431754 0.06376465 -0.11009951
0.043724045 -0.1385114 0.10971947 0.11812167 -0.0034888866 0.06772499 -0.096894875 -0.08557738
-0.032987904 -0.11998036 -0.030432124 -0.0010345255 -0.07810053 0.110086374 0.05681529 0.09555791

batch_norm.weight f4 [400]
00000000: 2799 7f3b 0024 96bb 3f2b de3a 2ed2 b33e
00000010: 10e6 1fba 18f9 603a e7cc ba3b e15f 2b3d
00000020: 82b4 943a 7697 ba3e 1e9f b73b 151e 8d3b
00000030: 96bc 24bb 24ea 9a3e 2293 753b 879c e5ba
00000040: 6f64 40ba 2229 c4bb 3ec5 8f3c f788 6d3b
00000050: 4e22 8a3a c8bc 243b 8423 0a3b 8b7e 0bbe
00000060: c61f 443a d186 1e3c ae58 8abb 768f 11bd
00000070: d105 983a 7677 81bb ce34 673b 2ecd 5d3e
00000080: bf29 6039 a73a f3bd ede3 ebbb 349e 0e3b
00000090: 4cea 183d f138 393b f813 0a39 1a34 523b
000000a0: 903e 03be 35d7 373d 2c53 413e 58a3 a73d
000000b0: 563c 693a 2d05 45bb 6c39 283d d688 22bb
000000c0: 9704 d5bb e922 6aba 21cd c539 cb02 9fba
000000d0: 4330 d33c cbc6 f5bd bee8 883b ce00 65bb
000000e0: 3f1b 0ebc a378 383b 9425 26bb 27e1 4dba
000000f0: eaa9 0dbc 7758 95bb a915 83bd ba36 5d3b
00000100: 7709 113c da15 873b d029 1a3e 770f b2bd
00000110: dc75 2abb 5607 b03d 7f07 673b 56b2 0d3d
00000120: c9c0 163b 720b be3e dacc e33c 9029 b2bb
00000130: 5057 a0b9 a55c db3a 19dd d7bb 348c 8a3e
00000140: 391c 103d 4cf2 1eba fec9 f43b 5f9d ab3d
00000150: 7d24 4abb 47cc f73a 1782 a83a 5d04 253b
00000160: 05cf b43b 6c73 3f3e ab24 03bb 7285 3d39
00000170: 6f18 f63b f8e2 86bd 47fc ef3c ea06 d1bb
00000180: 2fbb 053b 6a1f 73be a116 3b39 5b3d a4bb
00000190: 8046 433b 8f67 1f3b 083c b5bd ac50 223c
000001a0: 79d4 c038 5163 b4bd da47 443b 6818 a43b
000001b0: 64c3 0d3b ef5c 95bd ea9e f439 e6a3 8e3c
000001c0: ca40 91b8 a75a aeb9 ee56 ab39 cc2f 53bb
000001d0: a84b 90b9 ab8c 943d af50 39be d96c 213b
000001e0: 5f6e bcbd d6ce 6d3e 5ac0 2e3e 3c2a 403e
000001f0: e87c 25bb fe60 313b ee85 493d 5713 8cb9
00000200: 0357 81bb 1e7a 5b3f 23fb 553e 3d1e a93a
00000210: 4bfb 74ba e00b c33d 0545 b1bb c1f4 763b
00000220: 47b6 25bb 9476 8d3d b852 183c ad89 153b
00000230: 836d 683a 9024 7fbe cda0 8cbb 4ecc 613c
00000240: ea5f 313e 956d cb3b e971 91bd d430 b3bb
00000250: 362f 6a3c b6b7 81be bff3 7c3a 33c2 70bb
00000260: bb87 7fbb 2eb6 8fbe 0192 9cbd 3a49 0d3e
00000270: d2ca 4d3a 7fa3 393c 1e77 823b 64b4 b43d
00000280: 8ec4 a0bb 9dbb cb3e 373a 64bc cb2a 1d3b
00000290: e3c9 0d39 7181 1fba e6ce daba 6d14 ed3e
000002a0: 12d3 263b 6dae 79ba 7bfb b83b d5d2 08bc
000002b0: 8333 3eba 44bd 1dbb 6dc6 d43d eba4 5fbd
000002c0: 9c3a b0bd fb19 1abd f1ce 943e 7539 ee3b
000002d0: 01e6 88bd 30e4 833b a8c3 84bb e815 023e
000002e0: 3339 41bb c07f 643e 568d 543b ce72 89bb
000002f0: acd3 40bb ddcf 8e39 f1b6 643b 5080 f53b
00000300: 474c 9fbd 1c79 36bc de76 a63e cb01 9a3a
00000310: f6d3 b53e 2b89 7b3b 9094 63bb 75b4 2cba
00000320: 1a53 ba3a 7f69 973d 69a5 7ebb 518b 91bd
00000330: 4f03 0fbe c2fc a8bb 0eaa ae3b ddbe 103c
00000340: fd5a 443b d118 083c 46b4 7fbb 9d95 863c
00000350: f944 813e ceb7 02bb 5696 17bb a99f ec3b
00000360: 07e5 d33d 22e5 c53a 739c f0bb 4768 033d
00000370: 4ab0 64ba bbd5 183c 0f5f 3abc 5dfd d73a
00000380: 293f 073a 4220 423f af64 27bc d3aa 95bb
00000390: cecb 9bb9 cdb3 ca3c 092d e3ba cd14 453b
000003a0: fa8f d439 37d4 373b 8836 67b8 f426 f93b
000003b0: d7d5 95bb ba4f 91ba 8912 8f3b 0a6e 8fbb
000003c0: bdf1 bebb 7e0a 563b 39e2 27be a04d 58bb
000003d0: 2fa1 213c bfb6 ac3b f154 bb3d a47c 51ba
000003e0: 225e 1e3b a1b1 c53b b932 0c3b 7ca1 e638
000003f0: 26db daba ba39 043c 8494 3ebe 78a1 3cbb
0.0039001198 -0.0045819283 0.0016950144 0.35121292 -0.00060996506 0.000858204 0.005700696 0.041839484
0.00113453 0.3644368 0.005603685 0.0043065646 -0.002513682 0.3025676 0.0037471731 -0.0017517962
-0.00073391845 -0.0059863487 0.017550107 0.0036244967 0.0010538788 0.0025136936 0.0021078298 -0.13622491
0.0007481541 0.009675697 -0.004221997 -0.035537206 0.0011598413 -0.0039510084 0.0035279277 0.21660301
0.00021377856 -0.118764214 -0.0071988017 0.0021761777 0.037332818 0.00282627 0.00013168145 0.0032074512
-0.12816834 0.04488297 0.18879384 0.08185452 0.00088972354 -0.00300629 0.041070387 -0.00248008
-0.0065007913 -0.00089315936 0.000377276 -0.001213157 0.025779849 -0.120008074 0.0041781357 -0.0034943107
-0.008673488 0.0028148077 -0.0025351988 -0.00078536797 -0.008646468 -0.004557665 -0.06400616 0.0033754543
0.008852354 0.004122478 0.15055013 -0.08694356 -0.002601019 0.08595149 0.003525227 0.034593903
0.0023003093 0.37118107 0.027807642 -0.0054370835 -0.0003058263 0.0016735984 -0.006587636 0.27060091
0.035183165 -0.0006063327 0.0074703684 0.083796255 -0.0030844503 0.0018905484 0.0012856153 0.0025179603
0.0055178427 0.18696374 -0.002001087 0.00018074157 0.007510237 -0.065862596 0.0292951 -0.006378998
0.002040576 -0.23742452 0.0001784214 -0.005012197 0.002979666 0.00243232 -0.08849341 0.009906929
9.1948496e-05 -0.088080056 0.0029950053 0.0050077923 0.0021631354 -0.07293116 0.00046657707 0.017412137
-6.926207e-05 -0.00033255407 0.0003268043 -0.0032224534 -0.0002752219 0.07253393 -0.18097185 0.0024631529
-0.09200739 0.23223433 0.17065564 0.18766111 -0.0025251452 0.0027065868 0.04919999 -0.0002671729
-0.00394714 0.8573321 0.20896582 0.0012902688 -0.0009345307 0.09523749 -0.005409839 0.0037682506
-0.0025285648 0.069073826 0.009297065 0.0022817657 0.0008866416 -0.24916291 -0.00429163 0.01378162
0.17321745 0.0062081316 -0.07101805 -0.0054684673 0.0142934825 -0.25335473 0.0009649358 -0.0036736846
-0.0038990814 -0.2806868 -0.076450355 0.13797465 0.0007850352 0.011330484 0.003981485 0.08823469
-0.0049062436 0.39791575 -0.013929895 0.0023981805 0.00013522017 -0.0006084657 -0.0016693741 0.46304646
0.0025455398 -0.00095245877 0.005645213 -0.0083510475 -0.00072556006 -0.002406911 0.10389409 -0.054600637
-0.08604929 -0.037622433 0.29064134 0.007270033 -0.06684495 0.004025005 -0.0040516444 0.12703669
-0.0029483556 0.22314358 0.0032432876 -0.004194594 -0.0029423041 0.0002723922 0.003489908 0.0074921027
-0.077782206 -0.011137273 0.32512563 0.0011749802 0.35513276 0.003838132 -0.0034726001 -0.00065881695
0.001421544 0.07393169 -0.0038855916 -0.071066506 -0.13966106 -0.005157084 0.0053303307 0.008834568
0.002996146 0.008306698 -0.0039017363 0.016428763 0.25247934 -0.0019945982 -0.0023130379 0.0072211814
0.10346418 0.0015098194 -0.007342869 0.03208187 -0.0008723779 0.009328301 -0.011375203 0.0016478706
0.0005159253 0.7583047 -0.010216876 -0.004567483 -0.0002971575 0.024743939 -0.0017332147 0.0030072213
0.00040543062 0.0028050074 -5.5125478e-05 0.0076035205 -0.004572611 -0.0011086382 0.0043662232 -0.0043771314
-0.0058271573 0.0032660062 -0.16394891 -0.0033005252 0.009865089 0.0052708085 0.09147061 -0.000799129
0.0024164994 0.006033138 0.0021392538 0.000109973334 -0.0016697391 0.008070404 -0.18611342 -0.0028782766

batch_norm.bias f4 [400]
00000000: e378 88ba 99dc adbb 76aa aeba 7dbc 89bd
00000010: fe78 98ba 83ae b339 74de f4ba b481 5dbf
00000020: bbbc 61ba 21d4 09bd 9075 2e37 88d4 f9ba
00000030: 83dc 81ba 874f aabc d72d 893a b356 083b
00000040: 0c30 b5ba c270 073a 59cf 92ba 272e d63a
00000050: 2859 a03b 6a18 c8ba 2ed1 fa3a 166c 4b3d
00000060: 1064 bd3a 5223 733a dc96 003b 73f3 893b
00000070: 86a6 02ba 20b2 a03a c716 963b 758c 493e
00000080: 003d 6c3b 1fa1 cebb f5f4 b63a d9f4 9f39
00000090: bad1 6fbe e16c 683a 57e2 9cbb a2dc 173b
000000a0: 9dfe 3ebd ef2b 983d d999 033d f676 353e
000000b0: 9573 5d3b a258 3538 234d b4ba 13bb 3639
000000c0: aec3 1a3b 9437 dc3a a755 33ba 3b1e 063b
000000d0: 6240 973c 41e8 6dbd 03ca 89bb bda6 2c3b
000000e0: 2a92 28bb e627 913b a52f 6736 3af0 96bb
000000f0: c3ac 26bb 9855 6bbb 3d5a aa3d 858a aa3a
00000100: da6f 59bb 08fb 08bb 2b17 193c 429f 953a
00000110: 1881 6aba f06d d43e bf8d 203a d7d6 c6ba
00000120: 2282 72ba 75d0 f9bd 6ee2 eb3c 09bf 0f3a
00000130: 5c8c 00bb 518b 27bb 407c 813b 3d19 c5be
00000140: 0c24 973d 091d 7bbb e144 d339 3250 773e
00000150: 7abb 6bba 265c a635 dd54 2e3e 254d 503a
00000160: 8d16 533a c767 84bd 857c e13a a429 e8ba
00000170: ca7c 3bbb 572e 19bc 6f7e bdbc 61d3 573b
00000180: 8cfd 21ba 085d 783d ab05 8c3a 47db e3b8
00000190: 1de2 4ebb 476e 0637 219f 0e3b 7b62 eb3a
000001a0: 6452 0a3b 0797 e53b eb06 14bb 868c a33a
000001b0: 4276 213a 030a eb3d d0a6 a1ba bb19 91bb
000001c0: 9830 ac39 446d 08bb 52f1 763a cab6 363b
000001d0: b08a e7ba 0d18 ed3c 4cd1 44bd c827 4b3b
000001e0: 2b57 70be ab95 10bf 0b03 bbbc 576e f73d
000001f0: c3a3 0fbb f276 edb9 18f2 56be 0e13 b43a
00000200: e245 2f3a 570a 843e c079 0abe 8991 e0b9
00000210: 3ef8 3537 e457 4b3e bf36 8fbb 181f c93a
00000220: 8662 ceba 7e6e a33c fdbe 073c b288 c03a
00000230: b0d7 4aba 77e0 a93d 9a6d 40ba a356 85ba
00000240: 866c 893e 0e22 10ba da35 a93c 9558 5f3b
00000250: dcab 94bc 7e37 21be 8f33 6ebb a9d0 433b
00000260: 3a26 50bb 6c35 c33d 5df8 91bd 44e3 e6bd
00000270: a024 5f3b ac4b 79bc a054 5cba 23c0 8c3d
00000280: 85ea cb3a c27d 8d3e 14af 88bd c40b 683a
00000290: 5da0 e53a de07 a8ba f694 5dbb 3583 8fbe
000002a0: beec 8eba 8bd0 85b9 563c 893d 0bd9 8eba
000002b0: d7ad de39 52b4 a139 e20c be3a 36ee bdba
000002c0: 64d0 e03c 33a3 35be 42a1 42be aee5 fbb8
000002d0: beeb debd 829e ccb9 22c6 843a 265b 76be
000002e0: 3fc3 aaba 40c0 4a3d c602 613b d1fc 403b
000002f0: 03b2 4b39 48cd bab9 9b26 9aba 00cf 12b9
00000300: 311b b1bc dbdc fa3a 4d7d a3bd fb68 30bb
00000310: 23f0 1bbf 3dfa cc3a 65b5 983a a1c3 773b
00000320: 554c a43b 62cc 473e 3bc4 70bb c0ed 66bc
00000330: 6dac 93bc 3d54 88ba 5f61 273b cf7b 473b
00000340: 4f4f 54ba c466 dbba 5087 2b3b cd81 383b
00000350: 09c8 1b3d dd5a 6f3a 3037 6cb9 6b27 e23a
00000360: c94b 5d3d 5bde 9f3a 2660 043a 8bfe dfbd
00000370: ebca ffba 5106 173a fb10 a33b 70fa 583b
00000380: 9edc beba a836 c0bd 68c5 bd3b 9f0a 96bb
00000390: 129a 0c3b ca56 0e3e 27d2 933a 9201 caba
000003a0: 541e a5ba 45ff 96bb 4357 fd3a 3ae8 42bb
000003b0: 53fd 5cbb c230 cdba da0a 1ebb e36b 6b3b
000003c0: 1970 2b3a 45a2 993b bc86 f7bd 6241 133a
000003d0: a262 013f 7d59 bb3a b304 c9bd a8b0 493b
000003e0: a206 16be 4f4d 2a39 440f 8d37 40cb afba
000003f0: 977b a43a c7c7 21bb 42db 3d3d 5001 1c3b
-0.0010412004 -0.0053058383 -0.0013325948 -0.067254044 -0.0011632738 0.00034271562 -0.0018682019 -0.86526036
-0.0008611192 -0.033649568 1.039858e-05 -0.0019060532 -0.0009907637 -0.020789875 0.0010465932 0.002080363
-0.0013823523 0.00051666435 -0.001120071 0.0016340659 0.0048934408 -0.0015266065 0.0019135827 0.049663626
0.0014449377 0.00092749775 0.001962117 0.0042099296 -0.00049839204 0.0012260117 0.004580352 0.19682486
0.00360471 -0.006305828 0.0013958501 0.0003050927 -0.23419848 0.0008866322 -0.004787724 0.002317228
-0.046629537 0.07430255 0.032129142 0.17721161 0.0033790816 4.323631e-05 -0.0013755899 0.00017426563
0.002361517 0.0016801232 -0.00068410713 0.0020464796 0.018463317 -0.058082823 -0.00420499 0.00263445
-0.0025721886 0.004429805 3.4449415e-06 -0.004606274 -0.0025432564 -0.0035909172 0.08317993 0.0013011253
-0.003317824 -0.002090158 0.009343903 0.001141526 -0.0008945628 0.41490126 0.00061246374 -0.0015170228
-0.00092509587 -0.12197963 0.028794494 0.00054834835 -0.001961491 -0.0025565217 0.0039515793 -0.38495818
0.07379922 -0.0038316867 0.00040296375 0.24151686 -0.0008992475 1.2394783e-06 0.1702456 0.0007946066
0.00080523716 -0.064651065 0.0017203247 -0.0017712605 -0.0028608316 -0.009349427 -0.023131577 0.0032932388
-0.0006179444 0.060635597 0.0010682842 -0.00010865047 -0.003156788 8.012698e-06 0.0021762329 0.0017958427
0.0021106238 0.0070065293 -0.0022587131 0.0012477792 0.00061592844 0.11476519 -0.0012333039 -0.004428116
0.00032842602 -0.002081708 0.0009420115 0.0027879947 -0.0017665233 0.028942132 -0.048051164 0.0030999053
-0.23470752 -0.56478375 -0.0228286 0.120815925 -0.0021917678 -0.00045292784 -0.20990789 0.0013738589
0.00066861336 0.2578914 -0.13523006 -0.00042833042 1.0846239e-05 0.19857746 -0.00437054 0.001534435
-0.0015745915 0.019950148 0.008285281 0.0014689176 -0.00077378284 0.082947664 -0.00073405507 -0.0010172914
0.2684061 -0.00054982386 0.020655561 0.0034079899 -0.018148355 -0.15743825 -0.003634665 0.002987901
-0.0031761066 0.09531674 -0.0712745 -0.11273816 0.003404893 -0.0152157955 -0.0008404944 0.06872585
0.0015557563 0.27635008 -0.066740185 0.0008851851 0.0017519105 -0.0012819727 -0.0033810711 -0.2802979
-0.0010904295 -0.00025523113 0.06700961 -0.0010898424 0.0004247266 0.00030842662 0.0014499689 -0.0014490548
0.027443118 -0.17738037 -0.19006827 -0.00012011394 -0.10884808 -0.0003902801 0.0010129849 -0.24058208
-0.0013028159 0.04949975 0.0034333928 0.0029447565 0.00019425903 -0.0003562963 -0.0011760773 -0.00014000759
-0.021619411 0.0019139306 -0.079828836 -0.0026918042 -0.60913295 0.0015638542 0.001165074 0.0037805813
0.0050139823 0.1951156 -0.0036738056 -0.01409477 -0.018026555 -0.0010401082 0.0025540215 0.0030438786
-0.0008098976 -0.0016739 0.0026173182 0.002815354 0.038032565 0.0009130666 -0.00022527273 0.0017254179
0.054027352 0.0012197004 0.00050497276 -0.10937222 -0.001951543 0.0005761134 0.0049763895 0.0033108257
-0.0014561599 -0.09385425 0.005791355 -0.004578903 0.0021454138 0.13900295 0.001127784 -0.0015411845
-0.001259754 -0.004608067 0.0019328374 -0.0029740469 -0.003372033 -0.001565479 -0.0024115355 0.003592246
0.0006539836 0.0046885335 -0.120862454 0.0005617348 0.50541127 0.0014293637 -0.098153494 0.0030775461
-0.14650968 0.00016241263 1.6815618e-05 -0.0013412014 0.001254904 -0.0024685727 0.04635168 0.0023804493

batch_norm.running_mean f4 [400]
00000000: 913e 05bd 0cc5 43be 3386 d9be 9d6e c3bf
00000010: 99cd 33bf 8ac7 223f 0114 5abf bc05 97c0
00000020: f947 e43f 58d8 0840 b5bc 833f 0f2f a33f
00000030: 00d9 17c0 b3ae 00c0 2565 193d 04a6 0cc0
00000040: 4359 b33f 78c9 b3bf af79 a9bf aee3 713e
00000050: 7391 75bf e327 94be 3bcc 503f 13fd 9cbf
00000060: ee00 d6be 95f8 36bf 1402 1abe 5b6d 183f
00000070: 1632 56be 5da3 973e 096f 75be 7c9f 5c3f
00000080: 8c75 74bf 1374 be3f 4cb0 5f3f 09f8 2bbe
00000090: e4b1 1dbf affe 903e b180 27c0 56a6 ccbf
000000a0: 3137 0a40 cd52 b8bf e79a 1140 2539 0540
000000b0: 874c e13e 4e2b 7e3c 5cef 0b40 ee85 5ebf
000000c0: 09cb 9a3d f2b0 af3f fa5c 98bf faf4 25c0
000000d0: 8d48 e7bf 49fb bc3f 59b0 b8bf ffe0 2ec0
000000e0: 4ac2 c9bf fab0 6bbf 1fe7 34bf 8c4b b03f
000000f0: e63a 1cbe a0bf 13be ba22 7bc0 e20a ca3e
00000100: ea39 b03f 88b8 c03f c021 36bf fb54 89bc
00000110: 03ef 30bf f0ea 0d40 e5be 1a3f 31db 9cbf
00000120: 3077 e33f d701 213f f225 ff3f 82ba a3be
00000130: 95f7 d83e 88a9 b93f d552 ccbf 3da4 9dbf
00000140: 1509 87bf d6c8 743f 08f9 97be 54bd c2be
00000150: 8864 71bf 7d9b 71bf 8ef5 00bf fbf6 103f
00000160: f56b 113f 3678 ac3f 5e7c 7abe 69d5 4cbe
00000170: debc 7a3f d463 0540 b8b6 4240 39ae a4bf
00000180: cfac e83e 2fa6 b7bf 7b48 1c3f 86a8 dbbf
00000190: f022 963e b517 c8be 0017 65bf 3bd4 9abf
000001a0: 9399 2b3f ea0d f8be faeb 89bf 2b99 aa3f
000001b0: ee60 84be 3651 66bf 02b9 323f 1706 863e
000001c0: d03f 1c40 c6e4 01be 524e 2fbf 0ccd 00be
000001d0: fe5b b7bf 2519 3e40 96e2 f3be 2b80 a4be
000001e0: 02ad 3d40 2b0f 6dc0 c072 aebf 323b 933e
000001f0: fa9a 78bf 9313 7cbf d06f 883f ba58 e13e
00000200: 924b bf3f 5b8c 423d 4af9 873e 1f91 dfbf
00000210: 7bb8 c9bf caed 0cbe d322 8abe f86e 093e
00000220: 2708 e53f ecc4 913f 0a35 95bf 5ee0 733f
00000230: 2921 f33e 47e3 f43f 34ec b4bf 310a ffbe
00000240: 6690 7e40 7534 b63f 17c9 9d3f 64b0 4a3f
00000250: ef80 1cc0 1900 7440 de54 05c0 3304 9b40
00000260: b64d 0540 8317 9c40 7ec3 db3f 7b47 c93d
00000270: 978a 0ebf 8b4e c3bd b903 b4bf 0692 633f
00000280: 0ed7 93bf 8e94 a23e 1614 a53f 6071 f2bf
00000290: 399e ca3e 2d2d 28bf cafe 12c0 c55a 683f
000002a0: 0d9b b43d bbd4 443e 0612 43c0 aa17 cebe
000002b0: 8985 593f 470d a4bd 66df 023f 20c2 37bf
000002c0: 31b1 df3e 0d26 febe d05a 733f f63c 0abf
000002d0: a45d 20c0 c678 24bf 6751 1abe 8719 2ac0
000002e0: 0d66 d5bd d08d f03e 0e59 71bd fb2c f2bf
000002f0: 2665 dabf d423 bbbf b416 99be 820b a73f
00000300: 084c 993f 4cc0 1e40 68b2 913f 977b 4640
00000310: b4eb d23e a9aa 283e 90df f93e 6795 7abf
00000320: 8ee5 203e 7780 443d 25ab 8e3f df54 923f
00000330: 1ccf a73e a422 49bf da58 f93e 7af4 d63d
00000340: d2d8 e9be 56a6 c6bf 9014 0d3f f7a6 c0be
00000350: a6ce 8fbe b487 4cc0 7d34 38bf a014 3ebe
00000360: d89c 0040 6dbf 233f f0a4 a23f d516 1ac0
00000370: 47d2 fbbd 00d9 d03f b599 243d 6432 393f
00000380: 0527 be3f 20b6 b7be 2c55 0ebf 3a38 67be
00000390: bb88 b13f 0ce8 b3be b1be b53f e73c 35bf
000003a0: a3d1 aebd e732 b8bf eac3 37bf 2755 a8bd
000003b0: 8882 b03e 1180 993e 508e 4ebf e167 f93e
000003c0: a5bf c63f b5c1 b1bd 6fef 293f f2f4 dabf
000003d0: 1575 eb3f b931 383e 5599 823f b468 d93d
000003e0: 10fd 88bf 008f 14c0 074f 0840 b784 debe
000003f0: 5721 67bf 82d9 1abf 8de4 fc3e 6ef4 813f
-0.03253037 -0.19118136 -0.42485198 -1.5268131 -0.7023559 0.6358572 -0.85186774 -4.71945
1.7834464 2.1382046 1.0291964 1.2748736 -2.3726196 -2.0106628 0.037449975 -2.1976328
1.4011616 -1.4045858 -1.324026 0.23622009 -0.9592506 -0.2893668 0.8156163 -1.2264732
-0.41797584 -0.71473056 -0.15039855 0.59541863 -0.20917544 0.29616824 -0.23968138 0.86180854
-0.9549186 1.4879173 0.8737838 -0.16793837 -0.61599565 0.28319308 -2.6172297 -1.5988262
2.1596186 -1.4400269 2.2750795 2.0816128 0.44003698 0.015513254 2.1864843 -0.8692311
0.07558257 1.3725874 -1.1903374 -2.5930772 -1.8069016 1.4764186 -1.4428817 -2.7324827
-1.5762417 -0.9206692 -0.7066516 1.3773055 -0.15256843 -0.14428568 -3.9239945 0.39461428
1.3767674 1.5056314 -0.7114525 -0.016764155 -0.691147 2.2174644 0.6044753 -1.2254392
1.7770748 0.6289343 1.9933455 -0.31978232 0.4237639 1.4504862 -1.5962778 -1.2315747
-1.0549647 0.9561895 -0.29682183 -0.3803507 -0.94294024 -0.9437788 -0.50374687 0.5662686
0.56805354 1.3474185 -0.24461505 -0.20003285 0.9794444 2.084218 3.0424023 -1.2865669
0.45444342 -1.434759 0.61048096 -1.7160804 0.2932353 -0.39080587 -0.8948822 -1.2096018
0.6703121 -0.48448116 -1.0775139 1.3327993 -0.258552 -0.8996767 0.6981355 0.2617652
2.4413948 -0.12684926 -0.6847888 -0.12578219 -1.4324949 2.9702847 -0.4763381 -0.32129034
2.9636846 -3.7040508 -1.3628769 0.287561 -0.97111475 -0.9846737 1.0659122 0.44013005
1.4944937 0.047497135 0.2655738 -1.7466162 -1.5759424 -0.13762584 -0.26979694 0.13421237
1.7893113 1.1388221 -1.1656811 0.9526423 0.47486237 1.913186 -1.4134583 -0.49812463
3.9775634 1.4234759 1.2326993 0.791754 -2.4453695 3.812506 -2.083305 4.8442626
2.082868 4.87787 1.7169034 0.09828087 -0.5568022 -0.09536465 -1.4063636 0.8889469
-1.1550004 0.31753963 1.2896755 -1.8940849 0.3957384 -0.6569393 -2.296801 0.90763503
0.08818636 0.19221775 -3.047975 -0.4025243 0.84969383 -0.08010345 0.5112213 -0.71780586
0.43689874 -0.49638405 0.95060444 -0.5399927 -2.5057154 -0.64246786 -0.15070115 -2.657808
-0.10419855 0.46983194 -0.05892282 -1.8919977 -1.7062118 -1.4620309 -0.29900134 1.3050387
1.1976328 2.4804869 1.138257 3.1012933 0.41195452 0.16471352 0.48803377 -0.9788422
0.15712568 0.047974076 1.1145979 1.1432151 0.327752 -0.7856848 0.487006 0.10495849
-0.45673233 -1.5519512 0.551095 -0.37627384 -0.28087348 -3.1957827 -0.7195509 -0.18562555
2.009573 0.6396397 1.2706585 -2.4076436 -0.122959666 1.6316223 0.04018565 0.72342515
1.4855658 -0.35881138 -0.5559871 -0.22580042 1.3869852 -0.35137975 1.4198819 -0.70796055
-0.08536079 -1.4390534 -0.71783316 -0.082193665 0.34474587 0.2998052 -0.806859 0.48712066
1.5527235 -0.08679525 0.6638097 -1.7106001 1.8395106 0.17987718 1.0203043 0.10615674
-1.0702229 -2.321228 2.1298234 -0.43460628 -0.9028525 -0.6048814 0.4939312 1.0152719

batch_norm.running_var f4 [400]
00000000: b91a 0542 a968 ba40 49e0 af40 9c5e 0f41
00000010: 627e 7941 33a6 1341 c4da c840 44d5 ad42
00000020: d234 1b42 f02e d840 d731 8841 10a7 c541
00000030: 80ed 0042 1552 ad40 8f8c 9940 bc78 d140
00000040: 8362 bd41 c29f 8040 a390 f940 5039 7140
00000050: 45e8 5441 4e2e 5e41 41bf 3741 fcca e340
00000060: e8e3 b040 c815 a040 3659 b542 f12f 7640
00000070: 0aca 9040 2ada 7840 07c5 7f42 11f4 2541
00000080: ae2d 6841 4041 7341 bd14 0d42 f526 e541
00000090: d627 d841 676b 7642 2717 1c42 2a5b 4b41
000000a0: f1da 3440 c832 6742 2da2 a541 498a 8141
000000b0: 9fd9 dc40 8a48 1f41 9f33 4f40 331d 5941
000000c0: d6ca 0e41 f9d5 8640 b9b3 a540 2eac 7e40
000000d0: 4268 2542 a37e da3f 9548 a142 0330 7240
000000e0: bf5d c540 b49d 4042 449e 2142 bbd3 dd42
000000f0: 079f 7341 1e67 cb41 42ec 7341 a46b 8540
00000100: 8406 7b40 567d 5f41 0e82 da41 1c36 5040
00000110: c3c5 8c41 e21d b341 c375 2541 da45 f040
00000120: d24c 0d42 b4ae fe3f 5861 3842 57cb b940
00000130: 98df 9540 afc3 4942 ab2d ae40 6008 5b43
00000140: 17b8 5d41 7a5b 7742 2fdc 1541 941a 2242
00000150: 3704 3541 bbb2 1141 930d 0b43 72e9 b441
00000160: 0fa5 c541 9ccc ad40 ff98 dc41 c796 e340
00000170: 4582 6141 9c93 4441 f754 6a40 43f7 3b41
00000180: 5216 b240 8cb0 3441 5080 1d42 8959 6041
00000190: 3cb3 ee40 6dd3 0642 0d0b 2c40 475f 0541
000001a0: b156 1242 5216 af40 e8ac 4341 9e7d a840
000001b0: c268 fd41 07fb 8b42 3341 ce40 28f7 5440
000001c0: 94ad 9841 66fd 9a41 6d48 4641 8efe 4341
000001d0: cf71 3941 4002 2a42 cdf9 6a40 1710 0941
000001e0: 05aa a640 9695 ae42 d8cd b53f 8096 9941
000001f0: f26b 2941 60c1 0e42 c170 b542 2340 c040
00000200: faff 3742 4e49 2c41 88bc 1242 04a6 6d40
00000210: a744 5640 56be 5b42 ae80 6c41 1f63 fa41
00000220: 9f7e 0641 3f6f 6a40 8816 2042 2b4b bd41
00000230: edf3 5a41 c158 ac40 ba3b 0b42 9a7f b140
00000240: 7b80 d042 4c06 9640 a8f8 ad41 69ea 3241
00000250: 8e4b 4741 4825 b340 9b8b c440 cfef d241
00000260: 3af4 9642 a870 3241 4e8f 2a40 2cf6 e641
00000270: b4dd 3741 c4ee 8b41 e378 0342 19db 4140
00000280: d54e 9440 c7e3 4d40 033c 9441 6bcf 2041
00000290: 32a2 0d42 d964 c740 96d7 e040 56cb 7441
000002a0: bf03 7242 4938 5141 b859 3342 78d8 cf40
000002b0: 0ff1 df41 fcc5 c641 1245 4c40 6873 8740
000002c0: 5e91 2f40 373f 8741 4aed 9841 f839 8440
000002d0: 4b30 b740 92c6 bb41 f251 4441 215b 4b42
000002e0: ad69 7d41 95d7 9c41 0d58 dc41 9d56 a942
000002f0: 2fa6 b240 ae33 1442 5bf3 4941 2611 0141
00000300: 4b05 9c40 0760 6041 303e 5140 09b9 6b42
00000310: b0a2 6a42 f041 4a42 1299 e240 9421 8b41
00000320: 60ed 4042 7959 0842 6ff6 a040 f1a8 bc41
00000330: 12f8 c740 3d19 9541 b4a9 1941 032b 9b40
00000340: 95ee dd40 ca01 1841 6d6f a240 02a7 ec40
00000350: 60cd ef40 d07c 6a42 5286 4042 bd5e a940
00000360: 4131 9340 3226 fb40 f1b6 8f40 c7bf ae42
00000370: cece 2342 caa7 8341 3939 1b42 fe85 5541
00000380: 0dd1 eb40 21ba 4941 1c59 2741 5aa1 5642
00000390: f63f 3441 3102 5042 dd6b 8b41 38b1 6541
000003a0: cf9d 5941 df7e 1042 957a a441 44c7 4040
000003b0: 1049 4440 6739 c240 b254 b740 f771 1642
000003c0: c31b b340 77fc cf42 5ee1 0641 5af0 9840
000003d0: da9e 0443 e64d 5c41 917f 2641 dfc5 ba42
000003e0: f96c 4742 ed13 0541 2f43 0a41 d055 7b41
000003f0: 05c9 da40 6373 d241 53cf 3441 691c ff40
33.276096 5.825276 5.4961286 8.960598 15.593355 9.228076 6.276705 86.916534
38.801582 6.7557297 17.024336 24.706573 32.231934 5.41627 4.798408 6.545988
23.673101 4.0195017 7.798906 3.769123 13.306706 13.886305 11.484193 7.1185284
5.5278206 5.002659 90.67424 3.846676 4.524663 3.8883157 63.94241 10.372087
14.511152 15.20343 35.270252 28.644022 27.019451 61.604885 39.02261 12.709757
2.8258631 57.79959 20.704187 16.192522 6.901565 9.95521 3.2375257 13.569629
8.9245205 4.2136197 5.178189 3.979259 41.351814 1.7069896 80.64176 3.7841804
6.1676936 48.154007 40.404556 110.913536 15.226325 25.42535 15.24518 4.1693897
3.9222727 13.9681 27.313503 3.2533026 17.596563 22.389591 10.34125 7.508527
35.32502 1.9897065 46.095062 5.8060718 4.683544 50.441097 5.4430747 219.03271
13.857444 61.839333 9.366256 40.525955 11.313529 9.106135 139.05302 22.613987
24.705595 5.4312267 27.574705 7.1121554 14.094304 12.286037 3.6614358 11.747867
5.5652246 11.293102 39.375305 14.021859 7.459379 33.70647 2.6881745 8.335761
36.58466 5.4714746 12.229713 5.265334 31.676151 69.99029 6.445459 3.3275852
19.084755 19.37373 12.392682 12.249647 11.590285 42.502197 3.6714966 8.566428
5.2082543 87.29216 1.4203444 19.198486 10.588854 35.688843 90.72022 6.007829
45.999977 10.767897 36.684113 3.7132578 3.3479402 54.935875 14.781416 31.298399
8.405913 3.66304 40.022003 23.661703 13.684552 5.385834 34.808327 5.5468264
104.25094 4.6882687 21.746414 11.182229 12.455946 5.598301 6.1420417 26.367094
75.477005 11.152504 2.6649966 28.870201 11.491627 17.491585 32.868053 3.0289977
4.634623 3.2170274 18.529303 10.050639 35.408394 6.2310605 7.0263166 15.299643
60.50366 13.0762415 44.837616 6.4951744 27.992704 24.846672 3.1917157 4.2328377
2.7432475 16.905867 19.115864 4.1320763 5.724645 23.471958 12.270006 50.838993
15.8383 19.605265 27.542994 84.66917 5.582786 37.05047 12.621913 8.066687
4.875646 14.023444 3.2694206 58.9307 58.658875 50.564392 7.0811853 17.391396
48.23181 34.087376 5.030082 23.58249 6.249032 18.637323 9.603931 4.8490005
6.935374 9.500437 5.076102 7.3953867 7.49382 58.621887 48.131172 5.2928147
4.5997624 7.8484125 4.4910817 87.374565 40.951958 16.456928 38.80588 13.345213
7.369269 12.607942 10.459255 53.65757 11.265615 52.00214 17.427668 14.355766
13.6010275 36.123898 20.559855 3.0121622 3.0669594 6.069507 5.729089 37.611294
5.597139 103.993095 8.430021 4.77934 132.62051 13.769018 10.406144 93.38647
49.85642 8.317365 8.641402 15.70845 6.8370385 26.306341 11.300616 7.972218

fc2.weight f4 [300, 404]
00000000: d02c 0e3d f3ff 8fbd 662e b13d aa9f 763e
00000010: 23ee 443d 8872 75bc e21c c73d 9ff4 293f
00000020: 0d98 bebc c96b 67be c9a3 ca3c 12c6 a33d
00000030: f5da f3bd 4549 ac3d 73ab 0e3d 8f92 07bd
00000040: c0f7 0a3b 9290 c83d 03c5 2fbd 90bd dcbd
00000050: 4176 a1be 6c20 95bc c876 b1bc 7624 1ebe
00000060: 5b2d 603d 6bd4 3ebe 7512 f13c 904a 1e3e
00000070: f148 213e 3f3e 13be 2eb9 dabd b04e d2bd
00000080: 531c eb3c eb3e 5f3e 129a 49bd cdd5 393d
00000090: 1700 953e fc62 15be 7c63 c7bc 606b aebd
000000a0: c49d e6bd ff9f 6fbc f9a5 693d 9575 043e
000000b0: a7b6 68bd b608 33bd ce21 f5bc 7eff 13be
000000c0: 3912 a0bd 555b 04be 164d bcbd 4eca f03d
000000d0: ee17 81bc e0f8 e93e 40eb 8b3d cbf1 93bd
000000e0: 1fd1 c9b9 c9d3 703e f0f9 403d f2eb c0bd
000000f0: 4b7c 9cbd db52 04be 4f83 ebbe 4de0 d1bd
00000100: f268 d4bd ecb5 0b3e bfa4 f53d b4db 08be
00000110: 2f09 cbbd 0b81 b9be 61b0 18be 72c1 593e
00000120: 1f5b ef3c f995 dcbe 2f87 f4be 3598 9b3d
00000130: 485a ba3c 52e6 08bb 56c9 983d ece8 913e
00000140: 650c 4d3e ade0 d33d 8d11 d5bd 2f88 cabd
00000150: 82da 2f3e 66eb a4bd 8480 05bf 1d66 f03c
00000160: 27de 643c 9d66 adbe eb67 6bbd 381b af3a
00000170: f2d0 273e c513 9dbd befd 8d3d c91b 77bd
00000180: aa9b 0bbd bc01 bdbe 1b9c 6fbd f21a ce3d
00000190: 5763 163e 68ff af3d 0cff 1abe 3ed3 503d
000001a0: 4056 70bd 6c55 913e 6546 443d 4ca1 e4bd
000001b0: 06cb a8bd abdb 54bf 7713 9e3d e7b6 e23d
000001c0: 3c64 46bc 4c93 cdbd be53 a43b 4c03 c33d
000001d0: 4d91 a73d bd22 bbbe 1f9a ecbe e498 623d
000001e0: cfdc 883e 7aa6 493f 6350 2b3e 676d f9bd
000001f0: 9af1 953d 55e1 103c f149 0a3f 7264 f03d
00000200: af3d c0bc d42a 643e a0ae 933d 3220 6a3d
00000210: 177d b63d 68c4 65bf 1e29 e9bd a048 35bd
00000220: e8c2 923b 94b2 803e 3a00 293e d47d 073d
00000230: bf2a 8bbd f570 173e c79f d43d 8d34 62bd
00000240: 1cb2 51bf 6a28 b43c 7434 2abf a1be 8cbd
00000250: b83d 5d3c 3bbd 62be 6019 3a3d 3f41 8fbe
00000260: 9c69 83bd 6fea 9abd cd23 5ebe d5ad d7bd
00000270: b8d3 d43b 9e29 933d f399 713c 2c95 bdbd
00000280: 0aad 0b3c 2822 ea3d 75ac 753d cbbb 8abd
00000290: 42c9 d4bc dff1 093d 14e1 fbbb c8f2 483d
000002a0: 9a41 5fbc 115e e43c 2032 0fbd 77f3 823c
000002b0: b94d 6a3d 2ae4 2c3d dec5 c23d 9583 4dbe
000002c0: 2baa 1c3c 7b18 343e a059 783b 5a96 3a3d
000002d0: 1d80 72be 9ae6 86bd c105 4fbd 6347 6f3e
000002e0: f116 3f3e e0f9 033e 3dd4 8e3c bf4b ff3c
000002f0: 9e09 cbbd 3dc4 813e 38fc 143e 1d25 7ebe
00000300: e46d 29bd 9f85 73be 9ba7 05be 338f c13d
00000310: 8d2a 493e e4d9 3c3d 7c82 bc3c 54d5 afbc
00000320: c54b c13d db86 ccbe 360c 93bd c8b3 cd3d
00000330: 2fac 7cbe 3faf 1ebd 6a26 ac3c 742e 2fbd
00000340: b211 9bbc 2344 8ebd 5f81 f8bc 6fd4 0abe
00000350: 437d 70be e36b 45bd bcc2 f1bd fcae 743d
00000360: 93b7 863e 1f1b c7bb 7684 f43d 4014 2d3f
00000370: ad1a 44bc 3c9d eebd d0c3 86be dea9 e4bd
00000380: 151d c73c be7a 87bd 8394 a1bd 4e0a b93d
00000390: 7428 f5bb 4881 21be 677b 46bd 0eec c9bd
000003a0: cd25 e13c c363 79bd 2b73 b03d 6437 a4bc
000003b0: 8c56 9c3d d5bc f43c 8e70 383d 47f9 a13d
000003c0: 711c 993d e3f4 2cbe 6262 93be d8e4 9a3c
000003d0: 4cb0 29bf 1882 86bb dae0 60be eac7 0fbd
000003e0: 5d4a b13e 8f7f 5ebc 6d4a 23be a037 a2bd
000003f0: 7ebc ccbd 1f7f 9bbd 0d8a 193d 0c80 8d3d
0.034710705 -0.0703124 0.08651428 0.24084345 0.048078667 -0.01498092 0.09722306 0.6638889
-0.023265863 -0.2259971 0.024736302 0.07996763 -0.11906997 0.084124126 0.034831475 -0.033098754
0.00212048 0.097931996 -0.042912494 -0.10778344 -0.31535533 -0.018203937 -0.021663085 -0.15443596
0.054730754 -0.18635719 0.029427746 0.15458131 0.15750481 -0.14379214 -0.106798515 -0.10268915
0.02870003 0.21801345 -0.0492192 0.045369912 0.2910163 -0.14588541 -0.02433943 -0.08516574
-0.1126056 -0.014625548 0.05704305 0.12935479 -0.056814816 -0.04370948 -0.029923346 -0.14452931
-0.07815976 -0.12925465 -0.091943905 0.117573366 -0.01575848 0.4569769 0.0683198 -0.07223853
-0.00038493515 0.2351829 0.04711336 -0.09420003 -0.076408945 -0.12922232 -0.45998618 -0.1024786
-0.10371579 0.13643616 0.119943134 -0.1336506 -0.09913861 -0.36231264 -0.14911033 0.212652
0.029218255 -0.4308317 -0.47759387 0.075973906 0.022748128 -0.0020889235 0.07460277 0.28498018
0.2002426 0.10345588 -0.10403738 -0.09889256 0.17173198 -0.08052711 -0.52149224 0.029345566
0.013968981 -0.3386735 -0.05747215 0.0013359552 0.163883 -0.07669786 0.06933163 -0.060329232
-0.034084 -0.36915386 -0.058498483 0.10063733 0.14686333 0.08593637 -0.15136355 0.050982706
-0.058676004 0.28385484 0.047918696 -0.111635774 -0.08241849 -0.83147687 0.077185564 0.11070042
-0.012108859 -0.1003786 0.0050148657 0.09522113 0.08182011 -0.3654994 -0.46211335 0.05532159
0.26730964 0.7876965 0.16729884 -0.1217907 0.073214725 0.008842786 0.54019076 0.117379084
-0.023466913 0.22281963 0.072110415 0.05715961 0.08910578 -0.8975282 -0.113847956 -0.044258714
0.004478801 0.25136244 0.16503993 0.033078983 -0.067952625 0.14789183 0.103820376 -0.055225898
-0.819124 0.021991927 -0.6648629 -0.06872297 0.013503484 -0.22142498 0.045434356 -0.27979466
-0.06416628 -0.07564246 -0.21693344 -0.10531203 0.0064949654 0.07185672 0.014746177 -0.09256968
0.008525142 0.11432296 0.05997892 -0.067741 -0.025974873 0.033677932 -0.0076867435 0.04905966
-0.0136264805 0.027876886 -0.034959912 0.015985234 0.05720303 0.04220978 0.095103964 -0.20069726
0.009562056 0.17587464 0.0037895218 0.045553543 -0.23681684 -0.065869525 -0.050542597 0.23367076
0.18661095 0.12888288 0.017435187 0.031164048 -0.09913944 0.2534503 0.14549339 -0.24818845
-0.041364565 -0.23781441 -0.13052218 0.09451141 0.19645138 0.046106234 0.023011439 -0.021464027
0.0943828 -0.39946637 -0.071800634 0.10044056 -0.24675058 -0.038741346 0.021014411 -0.04276891
-0.018929336 -0.0694659 -0.030335126 -0.135576 -0.23485284 -0.048198592 -0.11804721 0.05973719
0.2631193 -0.006076231 0.119393274 0.67609024 -0.011969251 -0.11651084 -0.26321268 -0.11165212
0.02430586 -0.06615208 -0.078896545 0.090351686 -0.007481629 -0.15771973 -0.04845753 -0.09859477
0.027483845 -0.060886156 0.086157165 -0.020045944 0.07633695 0.029875198 0.045029216 0.07908874
0.07476128 -0.16890292 -0.28785998 0.01890795 -0.6628463 -0.004104864 -0.21960774 -0.035102762
0.34627047 -0.013580217 -0.1594636 -0.07920766 -0.099968895 -0.07592606 0.03748517 0.06909189

fc2.bias f4 [300]
00000000: 9edf 51bf 2e71 84be 117c a0be 5f10 74be
00000010: 2ce7 e1be 00c8 b5be 5796 94be 89ed 90be
00000020: 801c c8be 4543 d0be 6df2 a7be 530c 69be
00000030: bec9 fdbe f49d cbbe c3d5 86be 8d49 e1be
00000040: b80b 18bf d230 90be 6f2d a9be bfe7 d0be
00000050: 22d5 debe 5d88 28bf 60ea b8be 393e 80be
00000060: e3d5 98be 12c1 81be 9b88 17bf ce13 8cbe
00000070: f3c5 a5be 17b6 82be 4cf2 98be 9724 7bbd
00000080: d14d cdbe 9777 59be 2783 8dbe 277a 8cbe
00000090: acd8 6dbe ab3d 72be 767e 32bc ba3a adbe
000000a0: 4988 73be c948 80be 4c8c bbbe cdb9 95be
000000b0: 4ab5 00bf 342b 8bbe a38a 63be 6e49 bebe
000000c0: 9dd1 98be c992 57be 8516 a43c 03ab 59be
000000d0: 5579 a9be d073 febe 64fc 4abe a7f8 a4be
000000e0: e312 8bbe db20 0dbf 79b0 97be 42bc 84be
000000f0: c0b3 42bf 73ee 44be fb20 84be 61c4 65be
00000100: e3de 8cbe 6335 9cbe 3367 6dbe 95b0 9ebe
00000110: 767f 84be 4e18 88be 3dde 94be 5127 fdbe
00000120: 8a7f 9abe 5401 abbe de49 89be 163b 92be
00000130: 15ba dbbe 454a bcbe 9722 3fbe d717 7fbe
00000140: 7d43 67be e976 b1be c973 68be cd25 ffbe
00000150: b3df 98bd bc55 2ebe eb5d f03d d03a b3be
00000160: 4e2d 9bbe a4ff 02bf 40a7 cebe eb45 17bf
00000170: b4ed 9bbe a94f c4be 22a5 d6be d064 95be
00000180: 08cd abbe 18bd 88be 0422 c6be 9188 99be
00000190: 4651 d8be 58d0 8dbe c771 8fbe 1cc7 c9be
000001a0: 3809 a3be eb65 c7be 8f9b 5dbe c6f3 9abe
000001b0: 484d 9cbe f067 77be ad24 c6be 8be9 abbe
000001c0: b5c2 f8be 349f 4cbe d307 9bbe 6c93 49be
000001d0: 6dd1 9fbe 17de a1be 6d8c 90be 32a0 b7be
000001e0: 5fcc 0dbf 685b 6ebe bb2f 2dbf 7a83 56bf
000001f0: b57a 96be 5b5b 59be 370b 8fbe d929 65be
00000200: 596d 97be 18bb 95be 6d8d 5cbe d995 b7be
00000210: c76c 4cbe 531a f6be b517 2fbe 0e11 89be
00000220: cd11 08bf 4f18 a8be eb02 82be 802c 9dbe
00000230: 0b85 b8be d728 0fbf cd80 9bbe a65e 87be
00000240: e8ee 92be e9f0 bebe 93ba 6cbe 2778 90be
00000250: 1861 c4be 0f33 82be 2149 8fbe 3a07 f7be
00000260: 35ba 97be 773a 96be b841 92be 0e79 ccbe
00000270: d3ce 55be a3fc 2bbe 3761 c9be 14b3 acbe
00000280: dc85 73be 9fad 93be a508 09bf 0976 d8be
00000290: b08d 923e 2b6d 3ebf 5544 87be 230d 97be
000002a0: 3777 50be 85e5 b4be 0336 aabe 8983 73be
000002b0: a070 a9be 27e7 11bf 90d3 b0be 4e7d c1be
000002c0: cf9f b0be d7a7 c8be 566a 76be f060 58be
000002d0: b8e8 e3be 54e2 bfbe e696 99be 8cdc 6dbe
000002e0: f319 84be b4d6 a7be 0313 87be de4a 88be
000002f0: 00d1 46be f3a4 7fbe aac8 aabe f484 7bbe
00000300: 7de5 82be e787 bbbe 819c 91be dd18 97be
00000310: 88f8 a3be f4a1 d3be 2e68 abbe 5eef 89be
00000320: 8ec7 86be 3425 a1be db6f 74be 70aa ccbe
00000330: 58a2 6fbe 098a 97be 47c9 7cbe c17c 68be
00000340: 7dca 3ebf 86e6 9ebe bc6a de3e db0d 61be
00000350: 3507 90be ffb5 d8be db22 7bbe 0ecf a9be
00000360: b2b2 19bf a362 b1bd 9ff9 1cbe 766f 6abe
00000370: dd87 a8be e9d1 a6be 3902 8ebe 6cad 9cbe
00000380: 366f 72be 685f 9cbe f981 9dbe 2832 78be
00000390: c17d a4be 1ee6 8ebe 2e6f 64be 66f4 e3be
000003a0: 5133 7cbe 4814 8fbe a46f 73be 410c acbe
000003b0: b2fe d5be d0a0 90be be4c a0be b960 5dbe
000003c0: da4b 28be 5728 09bf 248c 7e3d 3e24 71be
000003d0: 77e5 7abe 9aea 19bf 192e 6ebe cc1f 85be
000003e0: f3f4 3dbe 2052 acbe 41fb b3be 248f 96be
000003f0: 11bf 5bbe 52c7 5dbe bdd3 8cbe 02d0 ebbe
-0.8198184 -0.258676 -0.31344655 -0.2383437 -0.44121683 -0.3550415 -0.2902095 -0.28306225
-0.39084244 -0.40676323 -0.32802144 -0.22758608 -0.4956798 -0.39768946 -0.26334962 -0.44001427
-0.5939288 -0.28162247 -0.33042476 -0.40801808 -0.43521982 -0.65833074 -0.36116314 -0.25047472
-0.29850683 -0.25342613 -0.5919282 -0.2735886 -0.32377586 -0.2552955 -0.29872358 -0.06131419
-0.40098432 -0.21237026 -0.27639124 -0.27436945 -0.23227185 -0.23656337 -0.010894408 -0.33833867
-0.23782457 -0.2505553 -0.36630476 -0.29243317 -0.50276625 -0.271814 -0.22220854 -0.37165397
-0.29847422 -0.21052088 0.02003027 -0.21256642 -0.33100381 -0.49697733 -0.19822842 -0.32220957
-0.27162847 -0.5512826 -0.29626825 -0.2592488 -0.76055527 -0.19231586 -0.25806412 -0.22438194
-0.275138 -0.3050948 -0.23183899 -0.30994096 -0.25878495 -0.26581043 -0.29075804 -0.4944406
-0.3017543 -0.3339945 -0.2681417 -0.28560704 -0.42915407 -0.36775413 -0.18665539 -0.24911438
-0.22584338 -0.34661034 -0.22700419 -0.49833527 -0.07464542 -0.17024893 0.117366634 -0.35005808
-0.30308002 -0.51171327 -0.40361977 -0.5909106 -0.3045479 -0.38342026 -0.4192286 -0.29178476
-0.33554864 -0.26706767 -0.38697827 -0.29987004 -0.42249507 -0.27698016 -0.28016493 -0.3940972
-0.3184297 -0.38944945 -0.21641372 -0.3026411 -0.3052771 -0.24160743 -0.38699856 -0.33576617
-0.4858605 -0.19982606 -0.30279407 -0.19685143 -0.31214467 -0.31614754 -0.28232136 -0.35864407
-0.5538997 -0.23277056 -0.67650956 -0.8379437 -0.29390493 -0.21226256 -0.27938244 -0.22379245
-0.29575613 -0.29244304 -0.21538325 -0.35856512 -0.1996337 -0.4806696 -0.17098887 -0.26770824
-0.5315216 -0.32831046 -0.2539285 -0.30698013 -0.36039004 -0.5592169 -0.30371705 -0.264394
-0.28697896 -0.37293175 -0.23118047 -0.2821667 -0.38355327 -0.2542958 -0.2798548 -0.482477
-0.29634252 -0.2934148 -0.28565764 -0.39936107 -0.20879678 -0.16795592 -0.39331982 -0.33730376
-0.23781532 -0.288434 -0.53528816 -0.42277554 0.28623724 -0.7438533 -0.2641932 -0.2950221
-0.20357977 -0.3533136 -0.33244333 -0.23780645 -0.3309374 -0.56993335 -0.3453641 -0.37790912
-0.34496924 -0.39190552 -0.24064001 -0.21130729 -0.44513488 -0.37477362 -0.2999794 -0.23228663
-0.25801048 -0.32780993 -0.26381692 -0.2661962 -0.19415665 -0.24965267 -0.3335622 -0.24562436
-0.2556571 -0.36627123 -0.28439716 -0.29511157 -0.32025552 -0.41334498 -0.3347792 -0.26940435
-0.26324123 -0.31473696 -0.23870794 -0.39973783 -0.23401773 -0.295975 -0.24686156 -0.2270384
-0.7452772 -0.3103525 0.43440807 -0.21977942 -0.281305 -0.42326352 -0.24525015 -0.33165783
-0.6003829 -0.086613916 -0.15329598 -0.22894081 -0.32916155 -0.32582024 -0.2773607 -0.3060106
-0.23675236 -0.3054154 -0.30763224 -0.24237883 -0.32127193 -0.2790994 -0.22308037 -0.445224
-0.2462895 -0.2794516 -0.23773056 -0.336031 -0.4179588 -0.2824769 -0.3130855 -0.21618928
-0.16435185 -0.5357718 0.062145367 -0.23548982 -0.24501596 -0.601236 -0.23259772 -0.26000822
-0.18550472 -0.33656406 -0.3515263 -0.29406083 -0.21459605 -0.21658066 -0.27505293 -0.46057135
